model_weights.pth (torch, 73125 bytes, 9 tensors)

conv1.weight f4 [16, 1, 5]
0	0xbd55cb95	-0.052196104
1	0xbe88b167	-0.26697847
2	0x3db4a47e	0.08820437
3	0xbe60c37e	-0.21949574
4	0xbe713060	-0.2355361
5	0x3d4a6852	0.049415894
6	0xbeba1026	-0.36340445
7	0xbec091d8	-0.3761127
8	0x3d8d14ff	0.0688877
9	0xbe883ea6	-0.26610297
10	0xbd4cbc52	-0.049984284
11	0x3deb9d90	0.11504662
12	0xbd7e93ec	-0.062152788
13	0x3dbee5d5	0.09321181
14	0xbeb98e1e	-0.3624124
15	0x3ad957b6	0.0016581926
16	0x3e2aac84	0.16667372
17	0x3eb87047	0.3602316
18	0x3e66ccf9	0.22539128
19	0xbd8cb8bd	-0.068711735
20	0x3ec50db8	0.3848703
21	0xbeaf3dcc	-0.34226835
22	0xbccef872	-0.025264952
23	0x3e0b506b	0.13604896
24	0x3e0681d6	0.13135466
25	0xbe1ba121	-0.15198185
26	0xbec7fe27	-0.3906109
27	0x3ec7a449	0.38992527
28	0xbe7567a2	-0.23965314
29	0x3d8e8b57	0.06960171
30	0x3eb726b2	0.3577171
31	0x3e59936b	0.21247642
32	0xbeac8587	-0.33695623
33	0x3e950107	0.29102346
34	0xbea9c9d9	-0.3316181
35	0xbe516875	-0.20450003
36	0xbe169809	-0.14706434
37	0xbdefbee4	-0.11706331
38	0xbda73117	-0.0816366
39	0x3ea3e64d	0.32011643
40	0xbe181eca	-0.14855495
41	0x3dc95275	0.098301806
42	0xbdbfdd4a	-0.093683794
43	0x3e8b7103	0.2723466
44	0xbe05419c	-0.13013309
45	0x3e4755b1	0.19466282
46	0x3edd17fe	0.43182367
47	0x3e716513	0.23573713
48	0x3ea14013	0.31494197
49	0x3c9404bf	0.01806867
50	0xbe1713dd	-0.14753671
51	0x3ed76b29	0.42073944
52	0x3cbf5499	0.023355769
53	0xbd387db1	-0.045041744
54	0xbe794843	-0.24343972
55	0xbd543662	-0.051809676
56	0x3e991f40	0.29906654
57	0x3e926496	0.28592366
58	0xbee82334	-0.45339358
59	0x3e2ec38d	0.17066784
60	0xbe349614	-0.17635375
61	0x3eb670fc	0.35633075
62	0x3db3d35d	0.08780549
63	0x3ec8d104	0.39221966
64	0x3da83ae3	0.08214357
65	0x3eb159bc	0.34638774
66	0xbec04294	-0.37550795
67	0x3e85804d	0.26074448
68	0x3edc22fa	0.42995435
69	0xbe9df964	-0.30854332
70	0x3e79b031	0.24383618
71	0xbe9a637a	-0.3015402
72	0xbd33b580	-0.043874264
73	0x3ee21d6f	0.4416308
74	0xbea996c0	-0.33122826
75	0xbd3f4ffd	-0.046707142
76	0x3e1c8d7e	0.1528835
77	0xbecc4261	-0.39894393
78	0x3eb57e91	0.35448125
79	0x3ddcc4e9	0.10779745

conv1.bias f4 [16]
0	0xbd8bf7e2	-0.06834389
1	0xbee5d63c	-0.4489001
2	0xbeb0b7cb	-0.34515223
3	0xbed22b92	-0.41048867
4	0xbe2dca59	-0.16971721
5	0x3ea467e6	0.32110518
6	0xbd3283c6	-0.0435827
7	0x3efdf064	0.49597466
8	0x3ee0da81	0.43916705
9	0x3e1c603d	0.15271087
10	0x3f066d47	0.52510494
11	0x3de87224	0.113498956
12	0xbe454de3	-0.19267993
13	0x3ed5fbc3	0.4179364
14	0x3c345e6f	0.011008843
15	0xbe80e50b	-0.25174746

conv2.weight f4 [32, 16, 5]
0	0x3ca81215	0.020516435
1	0xbdff58c0	-0.124680996
2	0xbdd64dec	-0.10464081
3	0x3dde95aa	0.1086839
4	0x3e06278e	0.13101026
5	0xbd1354f2	-0.035969682
6	0xbdd7884f	-0.10524046
7	0xbd46ba57	-0.04851755
8	0x3d8694b6	0.06571333
9	0x3c581a55	0.013189872
10	0xbcc349bb	-0.023838868
11	0xbcc38cbf	-0.023870824
12	0xbd0f0169	-0.034913454
13	0x3dfa1937	0.122118406
14	0x3dfcf9d1	0.12352336
15	0xbd7baf3f	-0.061446425
16	0x3d9f9f77	0.077940874
17	0xbd57b5f3	-0.052663755
18	0xbdd1cfc8	-0.10244709
19	0xbe065cdf	-0.13121365
20	0xbb6978d7	-0.0035625005
21	0xbdb8a573	-0.09015932
22	0xbcfc792b	-0.030819496
23	0x3d27bebf	0.040953394
24	0x3cdb6105	0.026779661
25	0x3c02762b	0.007962744
26	0xbe023572	-0.127157
27	0x3d03f1b0	0.032212913
28	0xbd79ef91	-0.061019484
29	0x3d86517b	0.0655851
30	0x3caf4465	0.021394918
31	0x3e0bc2e4	0.13648564
32	0xbd9787db	-0.07398959
33	0x3cf22829	0.029560165
34	0x3d72d030	0.059280574
35	0xbd905adc	-0.0704858
36	0xbe145c50	-0.1448834
37	0x3d1850d2	0.03718645
38	0xbd6eed05	-0.05833151
39	0x3d399717	0.045310106
40	0xbdc2409c	-0.094849795
41	0xbe19c192	-0.15015247
42	0xbd3e7300	-0.04649639
43	0xbd361cce	-0.044461064
44	0xbd908778	-0.070570886
45	0x3d7d2d89	0.061811004
46	0x3db0631c	0.086126536
47	0x3d22b356	0.03972181
48	0xbd2374be	-0.039906256
49	0x3cc77e42	0.024352197
50	0x3d8483f1	0.06470478
51	0x3d271ae6	0.040797137
52	0x3ded0cd6	0.11574714
53	0x3c35b580	0.011090636
54	0x3dc3d9c4	0.0956302
55	0x39ad54bf	0.00033060272
56	0xbde15b97	-0.110037975
57	0x3dba0b82	0.09084226
58	0x3cca48ed	0.024692977
59	0xbe1e0734	-0.15432435
60	0x3db37c01	0.08763886
61	0xbd3bbb77	-0.045833077
62	0x3d25b0d2	0.040451832
63	0x3b51a3ec	0.0031988574
64	0xbdea291a	-0.11433621
65	0x3d4edd0c	0.050503775
66	0xbd83d163	-0.06436422
67	0x3d6d5fa7	0.05795255
68	0xbdb3472a	-0.08753808
69	0xbe1dbd2c	-0.15404195
70	0xbca11c21	-0.019666733
71	0x3d36c08b	0.044617217
72	0x3d4005f3	0.046880674
73	0xbc2cbfa6	-0.010543739
74	0x3caa81b8	0.020813808
75	0xbd239f1b	-0.039946657
76	0x3c307612	0.010770338
77	0xbd0d9259	-0.034563396
78	0xbe33213b	-0.17493145
79	0xbd3e1367	-0.046405222
80	0xbc73ca94	-0.014879841
81	0xbd58032b	-0.052737396
82	0xbc6d8ae6	-0.014498448
83	0x3da6de1e	0.08147834
84	0xbd97d455	-0.07413546
85	0x3d0279ee	0.031854562
86	0x3d8d5f5d	0.06902955
87	0x3de4135e	0.111365065
88	0x3da2cd8e	0.07949363
89	0xbdd518c6	-0.10405116
90	0x3d591509	0.052998576
91	0xba93ed34	-0.0011285902
92	0x3d90bac5	0.070668735
93	0xbc589d6f	-0.013221129
94	0x3cd35aa2	0.025800053
95	0x3e109afa	0.14121619
96	0x3c8ae690	0.016955644
97	0xbdaff660	-0.08591914
98	0x3d7deb04	0.061991706
99	0x3def54ee	0.11686121
100	0xbd7e7865	-0.062126536
101	0xbcd44be8	-0.025915101
102	0x3cbf2b86	0.023336183
103	0x3c901461	0.017587842
104	0x3e1b6aa5	0.151774
105	0x3d8e9f58	0.06963986
106	0x3d8e477f	0.069472305
107	0x3d20c1d3	0.039247345
108	0xbd050e03	-0.032484066
109	0xbd2cc4c7	-0.04217985
110	0x3c91135e	0.01770943
111	0xbac6d922	-0.0015170912
112	0xbe09772b	-0.13424365
113	0xbd92fd3a	-0.071772054
114	0xbda9ebe9	-0.082969494
115	0xbdeba7bc	-0.11506602
116	0x3d1197b3	0.035545062
117	0xbdd16af8	-0.10225481
118	0x3d3f6ba6	0.04673352
119	0x3d1bb5fb	0.038015347
120	0xbdecc66e	-0.11561285
121	0xbdfeaa09	-0.124347754
122	0xbe36b35b	-0.17841856
123	0xbdcf4dab	-0.10122236
124	0xbd42cb55	-0.047557194
125	0x3dedc250	0.11609328
126	0xbda15ea3	-0.07879379
127	0xbd83d9ea	-0.06438048
128	0xbd12bca7	-0.035824444
129	0x3e132435	0.1436928
130	0xbdc63940	-0.09678888
131	0x3d18017b	0.037110787
132	0xbe5aa5b9	-0.2135228
133	0xbe6efd62	-0.23338845
134	0xbe16d735	-0.14730532
135	0xbddfdd5e	-0.10930894
136	0xbd531b27	-0.051539566
137	0xbd551c02	-0.052028663
138	0xbdd714c4	-0.105020076
139	0xbd4df45d	-0.05028187
140	0xbd791f85	-0.060821075
141	0x3cbdfe6d	0.023192609
142	0xbd8adc77	-0.067803316
143	0x3daa1752	0.08305229
144	0xbbfd4c90	-0.007730074
145	0xbd46b730	-0.048514545
146	0x3bc96871	0.0061464836
147	0xbd4836c5	-0.048880357
148	0xbdb82fb0	-0.08993471
149	0x3c99cb6d	0.018773759
150	0xbdd14441	-0.102180965
151	0xbdf197e9	-0.11796553
152	0xbe93c8bc	-0.28864086
153	0xbe9c48cf	-0.305243
154	0xbdd95a72	-0.10612954
155	0xbd08235f	-0.033236858
156	0x3cc50d2c	0.024054132
157	0xbd355db3	-0.04427881
158	0x3db63559	0.08896894
159	0x3e4d7edf	0.20067929
160	0x3ca8ef05	0.020621786
161	0xbd13cb94	-0.03608282
162	0xbdb59748	-0.08866745
163	0xbda28dfa	-0.07937236
164	0x3d0549a6	0.03254094
165	0x3e43a26e	0.19104931
166	0xbc9fca0b	-0.019505521
167	0xbd349ad7	-0.04409298
168	0xbcb66834	-0.022266485
169	0xbdb5115c	-0.08841202
170	0x3de92a0d	0.11384974
171	0xbd80c5df	-0.06287741
172	0x3d96d93a	0.073656514
173	0xbe0a8406	-0.13526925
174	0x3d06f105	0.032944698
175	0xbd1d3968	-0.038384825
176	0xbda03b14	-0.07823768
177	0xbd8bd0b4	-0.06826916
178	0x3e03275c	0.12807983
179	0xbd91b7d2	-0.07115139
180	0xbd704389	-0.058658157
181	0x3d845f6d	0.064635135
182	0x3d8a8370	0.06763351
183	0xbd838714	-0.064222485
184	0xbd998dc1	-0.074977405
185	0x3c701a64	0.0146547295
186	0x3c687df7	0.014190189
187	0xbd65e97f	-0.056130882
188	0xbd5b7357	-0.053576794
189	0xbdb0c04b	-0.08630427
190	0xbdbd78a4	-0.09251526
191	0x3d0fa3d8	0.035068363
192	0x3ce4d2c7	0.027932538
193	0xbb5798d8	-0.0032897498
194	0x3d033a3b	0.032037955
195	0x3e08d011	0.13360621
196	0x3e356bf3	0.1771696
197	0x3e10b59b	0.14131777
198	0xbcdacb08	-0.026708141
199	0x3d82b93e	0.063829884
200	0x3d8180f4	0.06323424
201	0xbdebd414	-0.1151506
202	0x3c202791	0.009775058
203	0xbdbcdde7	-0.09222012
204	0x3b9ca8ed	0.0047808797
205	0xbdc9050a	-0.09815414
206	0xbdeb4b73	-0.11489
207	0x3db6ad2c	0.08919749
208	0x3dc3c66a	0.09559329
209	0x3dd7a314	0.105291516
210	0xbd50e789	-0.05100206
211	0xbd3db46a	-0.046314634
212	0xbe491ee6	-0.19640693
213	0xbe157900	-0.14596939
214	0x3da373dc	0.07981083
215	0xbce7eaf2	-0.028310273
216	0xbd026eac	-0.031843826
217	0xbd283e43	-0.041075002
218	0x3cd65f88	0.0261686
219	0x3e025a9d	0.12729879
220	0xbb915ae9	-0.004435886
221	0x3dd883c1	0.10572005
222	0x3c8ef8d9	0.017452644
223	0xbbec11cb	-0.0072042695
224	0x3deea712	0.1165296
225	0xbba0eaf5	-0.0049108216
226	0x3d5040d7	0.050843086
227	0xbbc72ab6	-0.0060780896
228	0xbda0afa9	-0.078460045
229	0x3dc6e608	0.09711844
230	0xbe928079	-0.28613642
231	0xbe7f3da4	-0.24925858
232	0xbe766716	-0.24062762
233	0xbe796c5c	-0.24357742
234	0xbd4a66dc	-0.0494145
235	0x3da64c6c	0.08120045
236	0xbcc0c50a	-0.023531456
237	0x3de5d51a	0.112222865
238	0xbcbabcb8	-0.022795066
239	0x3dcd8f43	0.10037091
240	0xbba2403f	-0.0049515064
241	0x3ddda5eb	0.10822662
242	0xbd84f89a	-0.064927295
243	0xbe05fcf2	-0.13084772
244	0xbe280945	-0.16409786
245	0x3d22757b	0.03966282
246	0x3df7bd66	0.12096672
247	0x3e12d933	0.14340667
248	0xbde7a73e	-0.11311196
249	0xbe256369	-0.16151203
250	0x3e294f9b	0.16534273
251	0xbc3e36d4	-0.011609752
252	0x3d37c610	0.04486662
253	0xbc2cff9a	-0.010558987
254	0xbdcde668	-0.10053712
255	0x3d28882a	0.04114548

conv2.bias f4 [32]
0	0xbdc3365f	-0.09531855
1	0xbc0bf789	-0.008542904
2	0x3caf21f3	0.021378493
3	0xbb109c0f	-0.0022065674
4	0xbcc408f2	-0.023930047
5	0xbd352ee8	-0.044234186
6	0x3dce8666	0.10084228
7	0xbdafbe8c	-0.08581266
8	0x3d52c039	0.05145285
9	0xbd170bbd	-0.03687643
10	0xbca06322	-0.01957852
11	0x3d10b41b	0.035328012
12	0xbe3cb733	-0.1842926
13	0xbddeeb6b	-0.10884746
14	0x3e1f08d4	0.15530711
15	0x3cb21528	0.021738604
16	0x3d99b64c	0.075054735
17	0xbd33d380	-0.043902874
18	0x3ca9e887	0.02074076
19	0x3cc04c3f	0.023473857
20	0x3d94be30	0.07262838
21	0x3df361d8	0.118838966
22	0xbe26b313	-0.16279249
23	0x3d8610ed	0.06546197
24	0x3e1ba3a2	0.1519914
25	0x3e362c37	0.17790304
26	0x3ddf5cce	0.10906373
27	0xbe2d90ce	-0.1694977
28	0x3d24d8ef	0.040245946
29	0xbc38f74d	-0.01128943
30	0xbe1e5479	-0.15461911
31	0x3d3b9aa5	0.045801777

conv3.weight f4 [64, 32, 5]
0	0x3d5375fc	0.05162619
1	0xbd68cbcb	-0.056834977
2	0xbd50e58e	-0.05100017
3	0x3c99142e	0.01868638
4	0xbd451821	-0.048118714
5	0xbd64b248	-0.055834085
6	0xbc19b809	-0.009382256
7	0xbd6f645c	-0.05844532
8	0xbdb1f253	-0.08688798
9	0xbdf08ab8	-0.117452085
10	0x3d51e155	0.051240284
11	0xbc9c2141	-0.019058825
12	0x3ba38d86	0.004991236
13	0xbd05cf47	-0.03266838
14	0x3d9d531c	0.076818675
15	0xbd2fa573	-0.042882394
16	0xbd2438c8	-0.040093213
17	0x3d83540f	0.06412517
18	0xbcc0c7f9	-0.023532854
19	0x3cecffc8	0.02893056
20	0xbd92e6ad	-0.07172904
21	0xbcb619a6	-0.022229027
22	0x3c97b76e	0.018520083
23	0xbda02e25	-0.07821301
24	0xbb4ed246	-0.0031558438
25	0x3c1cf0c0	0.009578884
26	0xbd46f2a0	-0.04857123
27	0x3d358079	0.044311974
28	0x3d4a85b6	0.049443923
29	0xbd7c8eeb	-0.061659735
30	0x3aa7ffed	0.0012817361
31	0xbd64e920	-0.055886388
32	0x3c812e79	0.01576923
33	0xbbc19b9e	-0.0059084436
34	0x3d107846	0.03527095
35	0xbd7b3ca4	-0.06133713
36	0xba1e6b94	-0.0006043252
37	0x3d0f36a0	0.034964204
38	0xbd18f7e0	-0.037345767
39	0x3d3312f2	0.04371924
40	0xbdad995a	-0.08476515
41	0xbb5f1554	-0.0034039812
42	0xbcc392bc	-0.02387368
43	0xbd4f6dbc	-0.05064176
44	0xbd453e7a	-0.048155285
45	0x3d367fdc	0.04455553
46	0x3d2cbf48	0.042174608
47	0x3c6be5dc	0.014398064
48	0x3c89eedc	0.01683753
49	0x3d427d1a	0.047482587
50	0x3d37d6ac	0.04488246
51	0x3d865888	0.06559855
52	0x3d127930	0.035760105
53	0xbd1c8081	-0.03820849
54	0x3d1e4434	0.038639262
55	0x3d9bda3d	0.07609985
56	0x3d86b41d	0.06577323
57	0x3d8b4cab	0.06801733
58	0xbcd74293	-0.026276862
59	0x3c44448c	0.0119792335
60	0xbcc2379e	-0.023708161
61	0xbcd15895	-0.025554935
62	0xbda14e2c	-0.07876238
63	0xbd8c4a76	-0.0685014
64	0x3c9664d7	0.018358631
65	0xbdd0602a	-0.10174592
66	0x3d81e90c	0.06343278
67	0xbc18b5e4	-0.00932071
68	0x3bbb7443	0.0057206466
69	0xbe08441d	-0.13307233
70	0xbd446f2f	-0.047957595
71	0xbd65ce6c	-0.056105062
72	0xbaa7fced	-0.0012816467
73	0x3d87911f	0.066194765
74	0x3d0b0ef7	0.03394982
75	0x3b860dc0	0.0040909946
76	0x3d0f7c74	0.035030797
77	0xbd86f5c5	-0.065898456
78	0x3c966125	0.018356869
79	0x3d97cbd8	0.07411927
80	0x3cbf5dd8	0.023360178
81	0xbd6e95cf	-0.058248337
82	0xbe9fa8cc	-0.3118347
83	0xbe510587	-0.20412265
84	0xbd96e79b	-0.07368394
85	0xbdc855e0	-0.09782004
86	0xbd4e248a	-0.050327815
87	0xbd901289	-0.07034785
88	0xbdb61cdf	-0.088922255
89	0xbd37bc55	-0.04485734
90	0x3d9b9bf6	0.075981066
91	0x3d88c98b	0.06679066
92	0x3bb9aa45	0.0056660497
93	0x3b641b1a	0.0034806193
94	0xbd04ab8a	-0.032390155
95	0xbe18f1a9	-0.14935936
96	0xbd52882f	-0.051399406
97	0xbe0f621e	-0.14002272
98	0xbd375d38	-0.044766635
99	0xbc5ad136	-0.013355544
100	0x3cb53d2c	0.022123896
101	0x3d7b9cd2	0.061428852
102	0x3d27b3fe	0.04094314
103	0x3b33b3e0	0.0027420446
104	0x3d190e69	0.03736726
105	0x3db72d96	0.08944242
106	0xbc2bb479	-0.01048004
107	0x3d45b01d	0.048263658
108	0x3dd52472	0.10407342
109	0x3cb5bd82	0.02218509
110	0xbd7355d2	-0.059408017
111	0xbdc93d94	-0.09826198
112	0xbda63d09	-0.0811711
113	0xbda12c26	-0.07869749
114	0xbd9dbee5	-0.07702426
115	0xbdbef0e9	-0.09323294
116	0xbbd57f83	-0.0065154447
117	0xbc4088ff	-0.011751412
118	0xbda29401	-0.07938386
119	0x3dad9892	0.08476366
120	0xbcf45536	-0.029825788
121	0xbce54758	-0.02798812
122	0xbc7830b5	-0.015148331
123	0xbba682d6	-0.005081515
124	0x3db10c5d	0.08644936
125	0xbc1036ac	-0.008802097
126	0x3d4b3947	0.04961517
127	0x3d084cd5	0.033276398
128	0x3d8cf647	0.06882911
129	0x3d61f51f	0.055165406
130	0x386598de	5.4740223e-05
131	0x3d7693f0	0.060199678
132	0xbd2cebf8	-0.042217225
133	0x3d06e7dd	0.032935966
134	0x3c9cca4d	0.019139433
135	0x3d2e114f	0.042496976
136	0xbda559ee	-0.08073793
137	0xbd941892	-0.07231249
138	0x3d308493	0.043095183
139	0x3ccab278	0.024743304
140	0xbc9dd288	-0.019265428
141	0x3da0ebc6	0.0785747
142	0xbc8ffa11	-0.017575296
143	0x3dc0d4ff	0.09415626
144	0xbbffd92c	-0.0078078713
145	0xbd9ba4fd	-0.075998284
146	0xbe1f394e	-0.15549204
147	0xbda109aa	-0.078631714
148	0xbd50efc5	-0.051009912
149	0xbe0048c5	-0.1252776
150	0x3d4e782e	0.05040758
151	0xbc886856	-0.016651314
152	0x3d1539f3	0.036432218
153	0x3d86f351	0.06589378
154	0xbcbf91d0	-0.023384959
155	0xbdd81a51	-0.105518945
156	0xbe056858	-0.13028085
157	0xbceb8940	-0.02875197
158	0xbe2ab86c	-0.16671914
159	0xbde2a100	-0.110658646
160	0x3d99471b	0.074842654
161	0xbd48bf11	-0.04901034
162	0x3cfebb8c	0.031095289
163	0xbd5d0dc2	-0.0539682
164	0xbd8e9b0a	-0.06963165
165	0xbde8f8bf	-0.113755696
166	0xbdae8552	-0.085215226
167	0xbe1bf82e	-0.15231392
168	0x3d105fe4	0.0352477
169	0xbd3b5669	-0.045736704
170	0x3d116031	0.035492126
171	0xbd69faf0	-0.05712408
172	0x3c010780	0.007875323
173	0xbc8fb2b9	-0.017541276
174	0xbd9ebe0f	-0.077510945
175	0xbcc48239	-0.023987876
176	0x3c9ea819	0.019367265
177	0xbd3374e4	-0.043812647
178	0xbd2c046e	-0.041996412
179	0x3cda9bdd	0.02668565
180	0x3c823b01	0.015897276
181	0x3caa7839	0.02080928
182	0xbd840a52	-0.06447281
183	0xbd27b263	-0.040941607
184	0x3adb1b83	0.0016716573
185	0xbd122712	-0.03568179
186	0x3d7d911e	0.061905973
187	0xbd9b8e66	-0.0759552
188	0x3d7d028c	0.061770007
189	0xbd956ed3	-0.07296529
190	0xbdad6d45	-0.08468107
191	0xbdd36852	-0.10322632
192	0xbd9c7641	-0.07639743
193	0x3c83ee12	0.016104732
194	0xbb29b29d	-0.0025893815
195	0xbd8eb013	-0.06967177
196	0xbd21d065	-0.03950538
197	0xbd014e9b	-0.031569105
198	0xbdc23d53	-0.09484353
199	0xbd75116f	-0.05983108
200	0xbdb1eaf9	-0.086873956
201	0x3cb5a0f8	0.022171482
202	0x3d8cbcb1	0.068719275
203	0xbcfb192e	-0.030651655
204	0x3c2bb448	0.010479994
205	0xbd8f247e	-0.06989382
206	0xbd63889c	-0.055550203
207	0xbdb6ba20	-0.08922219
208	0xbd3f0391	-0.04663426
209	0xbd5624c9	-0.052281175
210	0x3ca393bb	0.019967904
211	0x3d15b351	0.036547963
212	0xbd5bed78	-0.053693265
213	0x3d2c4bb8	0.0420644
214	0x3d0af80b	0.03392796
215	0x3db1cb8c	0.086814016
216	0x3d04913c	0.03236507
217	0x3d833f62	0.06408574
218	0xbdae5329	-0.08511955
219	0xbc91109d	-0.017708117
220	0x3c421651	0.011846141
221	0x3d1c17e7	0.038108733
222	0x3d055757	0.032553997
223	0xbca995aa	-0.020701248
224	0xbc823616	-0.01589493
225	0xbc6e88b0	-0.014558956
226	0xbcf79d4d	-0.030226374
227	0xbc3f9b91	-0.011694805
228	0x3d39366a	0.04521791
229	0xbccd6d61	-0.02507657
230	0xbda461be	-0.08026455
231	0xbcf4419b	-0.02981644
232	0xbd5f4646	-0.054510377
233	0x3cfea281	0.031083347
234	0xbd4dd5c6	-0.0502527
235	0x3d77777c	0.060416684
236	0xbc7e5182	-0.015522363
237	0xbe01c6e8	-0.12673533
238	0xbd56c621	-0.052435044
239	0x3ca74f1a	0.02042346
240	0x3d86a6fe	0.0657482
241	0xbc085e01	-0.0083231935
242	0xbd26d799	-0.040732954
243	0xbd0b7c7d	-0.03405427
244	0x3d9b29ed	0.07576356
245	0xba94a880	-0.0011341721
246	0xbe082928	-0.1329695
247	0xbdcf180e	-0.1011201
248	0x3d09c86f	0.033638414
249	0x3be1527a	0.006876287
250	0xbd83f405	-0.064430274
251	0xbcc935cd	-0.024561787
252	0xbd5e9b83	-0.054347526
253	0x3d034535	0.032048423
254	0x3cdae24e	0.026719239
255	0xbccfce87	-0.025367035

conv3.bias f4 [64]
0	0x3ddc1f19	0.10748119
1	0x3d6b6751	0.057471577
2	0x3cd1dc74	0.025617816
3	0xbd148dd0	-0.036268055
4	0x3bf3686b	0.007428219
5	0xbd57977b	-0.052634697
6	0xbd8f2339	-0.0698914
7	0xbd276ed7	-0.04087719
8	0xbe25f13a	-0.16205302
9	0x3df15d21	0.11785341
10	0x3cff8169	0.031189637
11	0x3db698b7	0.08915847
12	0xbd934605	-0.071910895
13	0x3ca02c7e	0.019552466
14	0x3d70c37f	0.05878019
15	0x3dd4154b	0.10355624
16	0xbc672627	-0.014108217
17	0x3d27bcfc	0.040951714
18	0x3c690448	0.014222212
19	0xbd123662	-0.035696395
20	0xbc7c72a8	-0.015408196
21	0x3dc5426e	0.09631811
22	0x3ddc984f	0.10771238
23	0xbe038396	-0.12843165
24	0xbb1cdaa2	-0.0023934026
25	0xbda2b1d7	-0.079440765
26	0xbd89c840	-0.06727648
27	0x3dac5c61	0.084160574
28	0x3c26d0d2	0.010181623
29	0x3c1dbade	0.009627072
30	0x3d8f03f2	0.069831744
31	0xbd68796d	-0.056756426
32	0xbb9db658	-0.004812997
33	0xbd843497	-0.06455343
34	0xbd060e27	-0.03272834
35	0xbdc9d397	-0.09854811
36	0xbd080c64	-0.03321494
37	0xbdcba25a	-0.099430755
38	0x3db842b4	0.089970976
39	0xbc9b56a4	-0.018962212
40	0x3c55eb65	0.013056611
41	0x3ca2bbad	0.019864881
42	0xbd019609	-0.031637225
43	0x3b11e09d	0.0022259124
44	0xbd977219	-0.07394809
45	0xbe05050b	-0.12990205
46	0xbe2359dd	-0.15952249
47	0xbd3a9665	-0.045553584
48	0x3d8c6a83	0.06856253
49	0x3abc6b7e	0.0014375297
50	0xbd9af898	-0.07566947
51	0x3c06aa91	0.008219377
52	0xbe0174d6	-0.12642226
53	0x3db72cf2	0.089441195
54	0x3cb04bae	0.021520462
55	0xbda319c6	-0.079639
56	0xbe1d2bfb	-0.15348808
57	0x3c989c58	0.018629238
58	0xbc91097b	-0.017704716
59	0xbd9593b1	-0.073035605
60	0x3d53d915	0.051720697
61	0x3d9237a9	0.071395226
62	0xbd00298d	-0.031289626
63	0x3dc92210	0.0982095

fc1.weight f4 [64, 64]
0	0x3cee30ba	0.029075969
1	0x3aafda75	0.0013416546
2	0x3d92ad65	0.07161979
3	0xbda42afb	-0.080160104
4	0xbd99de7b	-0.07513138
5	0x3e1dfdab	0.15428798
6	0x3e2cb223	0.16864829
7	0x3d75b9ae	0.05999153
8	0x3d2e81b6	0.04260417
9	0xbd82c3c6	-0.06384997
10	0xbd442b03	-0.04789258
11	0xbe0099c3	-0.12558655
12	0x3c79a086	0.015236026
13	0x3dbb0a99	0.09132881
14	0xbdd900f9	-0.10595889
15	0xbe044b20	-0.12919283
16	0x3e094909	0.13406767
17	0xbe1c7fcf	-0.1528313
18	0x3cd438c7	0.02590598
19	0x3dade603	0.08491137
20	0xbd67d668	-0.056600958
21	0x3da63e1f	0.081173174
22	0x3cc93a46	0.02456392
23	0xbded51f7	-0.11587899
24	0x3df5e27f	0.12006091
25	0xbd7972fd	-0.060900677
26	0x3d4937cd	0.04912548
27	0x3c1dc44d	0.009629321
28	0x3decda20	0.115650415
29	0x3dc35cb3	0.09539165
30	0x3d5a96b9	0.053366397
31	0xbd8f21c2	-0.06988861
32	0x3e122fc3	0.14276032
33	0x3e4766d3	0.19472818
34	0x3b1739ed	0.0023075298
35	0x3e0fccca	0.14042965
36	0x3ccdf9fa	0.025143612
37	0x3df0d96b	0.11760219
38	0xbb94f5bf	-0.004545897
39	0x3dcd59b1	0.10026873
40	0xbd10359a	-0.03520737
41	0xbccfc3ba	-0.025361884
42	0xbaa326d0	-0.001244748
43	0x3dd4a33e	0.103826985
44	0xbcbb85d9	-0.022890972
45	0xbd272708	-0.040808707
46	0x3c194010	0.009353653
47	0x3e0713d7	0.13191162
48	0xbe2559a8	-0.16147482
49	0x3de20b01	0.11037255
50	0x3d818257	0.063236885
51	0x3eb27ff1	0.34863237
52	0xbd8685a9	-0.065684624
53	0x3dcff0ff	0.10153388
54	0xbd732003	-0.0593567
55	0xbdac0fb2	-0.08401431
56	0xbd8fdb67	-0.070242696
57	0xbde4a8e4	-0.11165026
58	0x3de299f7	0.11064523
59	0x3d137e31	0.036009017
60	0xbdb57181	-0.0885954
61	0xbd462494	-0.048374727
62	0xbaa8ab40	-0.0012868419
63	0xbd68f77d	-0.05687665
64	0xbde13061	-0.10995556
65	0x3cb511b8	0.022103176
66	0xbd928650	-0.07154524
67	0xbdbb6753	-0.09150567
68	0xbd7cc677	-0.06171271
69	0x3e2d2532	0.1690872
70	0x3e4a218a	0.19739357
71	0xbcfd8ebb	-0.030951848
72	0xbd58dff6	-0.05294796
73	0xbe02ced4	-0.12774211
74	0x3db78f7a	0.08962913
75	0x3d580fa3	0.052749287
76	0xbde81e7c	-0.113339394
77	0xbdbbb273	-0.09164896
78	0x3d429e17	0.047514047
79	0xbd4cc517	-0.049992647
80	0x3d867bf4	0.06566611
81	0xbc98e79b	-0.018665126
82	0xbd4064b2	-0.04697103
83	0x3dda8895	0.10670582
84	0x3dd18f16	0.102323696
85	0xbdbaccfe	-0.091211304
86	0xbde4824b	-0.11157664
87	0xbb8b7a5f	-0.004256531
88	0x3dd972df	0.10617613
89	0xbd4c2338	-0.049838275
90	0x3e240287	0.16016589
91	0xbc457071	-0.012050734
92	0x3d28fec6	0.041258596
93	0x3da72221	0.081608064
94	0xbc51eccd	-0.012812805
95	0x3ddfe9fc	0.10933301
96	0x3d8ba8a1	0.06819273
97	0x3e7335de	0.23751017
98	0x3a49be0f	0.00076958624
99	0x3e0a0950	0.13480115
100	0xbcb648e7	-0.02225156
101	0xbdae2be1	-0.08504463
102	0xbdce11ed	-0.10062013
103	0x3ddaca27	0.10683089
104	0xbd4c02ef	-0.049807485
105	0x3c0ea49f	0.008706241
106	0x3dd6d53c	0.1048989
107	0xbd6987ed	-0.057014395
108	0x3db099d3	0.0862309
109	0x3de3a2c9	0.11115033
110	0x3d298b64	0.0413927
111	0x3d443a5f	0.04790723
112	0x3e062b3a	0.13102427
113	0xbe0442ed	-0.12916155
114	0xbd90b571	-0.07065857
115	0x3e80c9e6	0.25154036
116	0x3e016bdf	0.12638806
117	0xbc336976	-0.010950437
118	0x3b5ed9a0	0.0034004226
119	0x3ddeda16	0.1088144
120	0x3db61b1f	0.08891892
121	0xbd8dd977	-0.06926244
122	0x3d85eeaf	0.06539666
123	0xbd810cee	-0.06301294
124	0x3b651412	0.003495459
125	0x3e0c17e0	0.13680983
126	0x3d8099c8	0.062793314
127	0xbd331279	-0.04371879
128	0x3cb5b96f	0.022183148
129	0xbe1749cc	-0.14774245
130	0x3d9c9a0c	0.076465696
131	0x3d176094	0.03695734
132	0xbe0b69f9	-0.13614644
133	0xbd8358ad	-0.06413398
134	0xbe94a0c4	-0.29028904
135	0xbdeafe1f	-0.11474251
136	0x3d32eb6e	0.043681554
137	0x3d9b2f19	0.075773425
138	0xbde1c73e	-0.110243306
139	0x3decc49e	0.11560939
140	0xbd36e3dc	-0.044650897
141	0x3dae6b65	0.08516578
142	0xbd4aa91a	-0.049477674
143	0xbbcbc6c6	-0.006218764
144	0x3b0ff5a4	0.0021966482
145	0x3e56c23a	0.20972529
146	0xbccdd29c	-0.02512484
147	0xbd41e0fc	-0.047333702
148	0xbdc67b5f	-0.096915
149	0x3d3062bc	0.04306291
150	0xbbbd5835	-0.0057783374
151	0xbcab12a9	-0.020882921
152	0xbd9e31dd	-0.077243544
153	0xbe125462	-0.14290002
154	0xbe517680	-0.2045536
155	0x3dbfb986	0.09361558
156	0x3d9ebcd6	0.07750861
157	0xbe881a27	-0.26582453
158	0x3d72e634	0.05930157
159	0xbde36294	-0.11102787
160	0xbdd40c70	-0.10353935
161	0xbd68caeb	-0.056834143
162	0x3e2040e6	0.15649757
163	0xbe77ad70	-0.24187255
164	0x3e2a41f5	0.16626723
165	0xbe1dc746	-0.15408048
166	0xbc0da3cb	-0.008645008
167	0xbd29db6e	-0.04146903
168	0xbe07ec0d	-0.1327364
169	0x3dc0d482	0.09415533
170	0xbe9b8c46	-0.30380458
171	0x3d9e361b	0.077251635
172	0x3dae4b65	0.08510474
173	0x3d990081	0.07470799
174	0x3c892bef	0.016744582
175	0x3df113a2	0.11771323
176	0x3dfefcdf	0.12450575
177	0xbe2869a1	-0.16446544
178	0xbc67b072	-0.014141189
179	0xbdd61b06	-0.10454373
180	0xbde88509	-0.113534994
181	0xbd642aa6	-0.055704735
182	0x3e35752d	0.1772048
183	0xbe898582	-0.2685967
184	0xbe3ee252	-0.18641022
185	0xbcbb9fd1	-0.022903355
186	0xbe94757a	-0.28995878
187	0x3df16a37	0.11787837
188	0xbc2a8523	-0.010407719
189	0x3df0f490	0.117653966
190	0xbe02b0b1	-0.12762715
191	0x3c9090a4	0.017647095
192	0xbe058cd9	-0.1304201
193	0xbde5b561	-0.11216236
194	0xbde522f3	-0.11188307
195	0xbc5b7327	-0.013394154
196	0x3d688fe7	0.05677786
197	0x3ccc60c0	0.024948478
198	0xbe057ace	-0.13035128
199	0x3c9e9e6c	0.01936265
200	0xbd222379	-0.03958461
201	0xbc2a0a6b	-0.01037846
202	0x3ad29efb	0.0016069108
203	0xbe48ce3a	-0.19609919
204	0x3dcff946	0.10154967
205	0xbdf0553d	-0.11735008
206	0xbe09a686	-0.1344243
207	0xbbe7ea70	-0.0070775077
208	0x3cf21ec4	0.029555686
209	0x3dcc9e5c	0.09991142
210	0xbdb79d35	-0.08965532
211	0xbdf2064a	-0.11817606
212	0xbd348d6d	-0.044080187
213	0xbd356bbc	-0.044292197
214	0xbd51244f	-0.051060017
215	0xbe04540a	-0.12922683
216	0x3da5f943	0.081041835
217	0xbd6c4130	-0.057679355
218	0x3b9e5c0e	0.004832751
219	0xbdbf3b8e	-0.09337531
220	0xbcf5964a	-0.02997889
221	0x3d9d66f0	0.076856494
222	0xbe001fc9	-0.12512125
223	0xbb421fdc	-0.002962104
224	0xbd00ad65	-0.031415362
225	0xbdb66851	-0.089066155
226	0x3ba2081a	0.0049448134
227	0x3d383ac1	0.044977907
228	0x3c563866	0.01307497
229	0xbdf7daa1	-0.12102247
230	0x3d1799bb	0.037011843
231	0x3dc70aa0	0.097188234
232	0x3db6b481	0.08921147
233	0x3d7a1ffc	0.06106566
234	0xbc4a89e2	-0.012361975
235	0xbd209aaf	-0.039210018
236	0x3d3e30da	0.046433307
237	0x3d43ee8b	0.047834914
238	0x3c2bcbdb	0.010485615
239	0xbbdd6949	-0.0067569357
240	0x3bbae7d1	0.005703904
241	0xbd8a4dd3	-0.06753125
242	0x3d9abd6b	0.0755566
243	0xbdcf044a	-0.1010824
244	0x3dd3b6ea	0.103376225
245	0x3d86b1a2	0.065768495
246	0xbd118465	-0.035526652
247	0xbdd44807	-0.103653006
248	0xbd4fb5a1	-0.050710324
249	0xbd398668	-0.045294195
250	0x3dc7f1f3	0.09762945
251	0xbc4b7f1f	-0.012420445
252	0xbdce6965	-0.10078696
253	0x3d756189	0.05990747
254	0xbd068a23	-0.03284658
255	0x3bf054c9	0.007334326

fc1.bias f4 [64]
0	0xbd85d787	-0.06535249
1	0xbd8fcbf1	-0.070213206
2	0x3d733e1a	0.059385397
3	0xbde283af	-0.11060273
4	0xbd686516	-0.056737028
5	0x3c60cebc	0.013721164
6	0xbe43b3e5	-0.19111593
7	0xbbf26d6d	-0.0073982985
8	0xbdc9af72	-0.09847917
9	0x3de5c6da	0.112195686
10	0x3e2b55ae	0.16731903
11	0xbbe07f03	-0.0068510785
12	0x3d982e4c	0.074307054
13	0xbda67248	-0.08127266
14	0xbdd65e9f	-0.10467266
15	0xbc816092	-0.015793119
16	0xbe3915b0	-0.1807468
17	0x3d6f0025	0.058349747
18	0x3d6883b5	0.05676623
19	0x3d2cedec	0.042219087
20	0xbd8d0fd8	-0.068877876
21	0xbc4436cd	-0.011975956
22	0x3c49d755	0.012319406
23	0x3ddb0395	0.106940426
24	0x3e09bcbb	0.13450901
25	0xbe4dbb36	-0.20090947
26	0xbd91480b	-0.07093819
27	0xbd81127c	-0.06302354
28	0x3dfddf77	0.12396138
29	0x3bcccfcf	0.0062503587
30	0xbe19da07	-0.15024577
31	0xbc463cff	-0.012099504
32	0x3c6cf530	0.014462754
33	0x3dd423b4	0.10358372
34	0xbd81a6f4	-0.06330672
35	0xbd94856f	-0.07252013
36	0xbddf740d	-0.10910807
37	0x3e4acac7	0.19803916
38	0x3d0e410b	0.03473
39	0xbe2c505d	-0.16827531
40	0x3d55a91d	0.052163232
41	0xbe3cb1ef	-0.18427251
42	0xbdcfaca9	-0.10140354
43	0x3e313876	0.17306694
44	0x3dd12c1f	0.102134936
45	0x3db6686f	0.08906638
46	0xbde563a6	-0.11200647
47	0x3dbc7d54	0.09203592
48	0xbe294699	-0.16530837
49	0xbd14ff2c	-0.036376163
50	0xbd9c040d	-0.0761796
51	0xbe0dad5c	-0.13835663
52	0x3e3af4f5	0.18257506
53	0xbd51435c	-0.05108963
54	0xbd5f8242	-0.054567583
55	0x3e56c23b	0.2097253
56	0xbdb93b67	-0.09044533
57	0xbe134f02	-0.14385608
58	0x3e424a16	0.18973574
59	0x3c6d756c	0.014493328
60	0x3e3498ae	0.17636368
61	0x3db0b7d3	0.08628812
62	0xbdf2bd96	-0.11852567
63	0xbe2c200b	-0.16809098

fc2.weight f4 [1, 64]
0	0x3e218dbc	0.15776724
1	0x3e18066a	0.14846197
2	0xbe3120d8	-0.17297685
3	0xbde26202	-0.1105385
4	0x3e15d203	0.14630894
5	0x3df860ae	0.12127815
6	0x3e36f55b	0.17867033
7	0xbdeaa067	-0.114563756
8	0x3e0ee538	0.13954628
9	0xbe41e611	-0.1893542
10	0xbe1a4ab6	-0.15067562
11	0x3c90dbfa	0.017683018
12	0xbe0b9907	-0.13632594
13	0xbb41fa80	-0.0029598773
14	0x3e3c4fff	0.18389891
15	0xbd9f98f7	-0.077928476
16	0x3de4340d	0.111427404
17	0xbdb839aa	-0.089953735
18	0xbe7b80e4	-0.24560887
19	0x3dcc1094	0.099640995
20	0xbd19b32b	-0.037524384
21	0x3e0e44fb	0.13893501
22	0xbe484350	-0.19556928
23	0xbe459031	-0.19293286
24	0xbddc3267	-0.10751801
25	0x3e1b7487	0.1518117
26	0x3daee7f9	0.08540339
27	0x3e336e48	0.17522538
28	0xbe2be748	-0.16787446
29	0x3e236690	0.15957093
30	0x3e032136	0.12805638
31	0x3dc4fa7a	0.09618087
32	0x3d85dbb0	0.06536043
33	0xbe5ce897	-0.21573101
34	0x3dec74ad	0.11545692
35	0x3e23bc6a	0.15989843
36	0x3da30393	0.07959666
37	0xbe20f271	-0.15717484
38	0x3e1d090c	0.15335482
39	0x3e17ceb5	0.14824946
40	0xbe471542	-0.19441703
41	0x3e128c6c	0.14311379
42	0x3df6b1e4	0.12045649
43	0xbe20084b	-0.15628164
44	0xbd9e604a	-0.077332094
45	0x3cb381c7	0.021912469
46	0xbdd6b317	-0.104833774
47	0xbdefb781	-0.117049225
48	0x3e1b9412	0.15193203
49	0xbe15c443	-0.14625649
50	0x3dab02ee	0.08350168
51	0x3e281249	0.16413225
52	0xbe4efb4b	-0.20213048
53	0x3e007114	0.12543136
54	0x3e0afbde	0.13572642
55	0xbe1b42ea	-0.15162244
56	0x3e242a0b	0.16031663
57	0x3e1a72cd	0.15082856
58	0xbe1a441d	-0.15065046
59	0xbded8e48	-0.115994036
60	0xbe4608ed	-0.19339342
61	0xbdfd91e5	-0.12381343
62	0x3df096b8	0.11747497
63	0x3e252871	0.16128708
