model_weights.pth (torch, 178341 bytes, 9 tensors)

conv_net.0.weight f4 [32, 1, 5]
0	0xbde7f67a	-0.113263085
1	0x3db48a98	0.08815497
2	0x3d2c4e2d	0.04206674
3	0x3e88b8ea	0.26703578
4	0xbe90654d	-0.28202286
5	0xbdbee370	-0.09320724
6	0x3d83fa18	0.06444186
7	0x3efab19f	0.4896364
8	0xbeb2ca0c	-0.34919775
9	0xbde5241f	-0.1118853
10	0xbe50a789	-0.2037641
11	0xbe8a6e81	-0.27037433
12	0xbe7d0246	-0.24707898
13	0x3f2280e5	0.6347793
14	0xbe19f7da	-0.15035954
15	0x3eb7eaf2	0.35921437
16	0x3d5e5c75	0.054287393
17	0xbe1fec91	-0.15617587
18	0xbe65eb3d	-0.22453018
19	0xbd4da717	-0.050208177
20	0xbde7193c	-0.1128411
21	0xbed5ef63	-0.417842
22	0x3f0599e1	0.52187926
23	0xbea96b4e	-0.3308968
24	0x3ea7410c	0.32666814
25	0x3e7d070a	0.24709716
26	0xbe19fb32	-0.1503723
27	0xbf04e2c7	-0.51908535
28	0x3eb5f655	0.355395
29	0x3d866906	0.065630004
30	0x3e36318d	0.1779234
31	0x3d906c75	0.070519365
32	0x3cc7f4b9	0.024408685
33	0xbe848e0e	-0.2588963
34	0xbd9cf309	-0.07663543
35	0x3de8953e	0.11356591
36	0xbe1e37f2	-0.15451029
37	0x3c8cb332	0.01717529
38	0x3e4e7a29	0.20163788
39	0xbe71c238	-0.23609245
40	0x3e7ef14b	0.24896733
41	0xbd44cc9b	-0.04804669
42	0xbe53b190	-0.20673203
43	0xbdc221ed	-0.09479127
44	0x3d9f366d	0.07774053
45	0x3eab1201	0.33412173
46	0x3d7c3a95	0.061579306
47	0x3dc78aac	0.097432464
48	0xbebd50ec	-0.369758
49	0x3e9304a3	0.28714475
50	0xbe6c9d26	-0.23106822
51	0x3e963bc2	0.29342467
52	0xbe329f6c	-0.17443627
53	0x3d5224a4	0.051304474
54	0x3daa85a6	0.08326273
55	0x3dfb6e17	0.12276857
56	0xbd32556c	-0.043538496
57	0xbe0dcf38	-0.13848579
58	0x3dc74746	0.09730391
59	0x3b62fea2	0.0034636636
60	0xbcb525d5	-0.022112766
61	0x3e5a6085	0.21325882
62	0x3e1192cc	0.14216155
63	0xbe82615c	-0.25464904
64	0x3e4ca08e	0.19983122
65	0xbcac856e	-0.021059718
66	0x3e40cf8a	0.1882917
67	0x3dd598d3	0.104295395
68	0xbed97995	-0.42475572
69	0x3e2464d1	0.16054083
70	0xbedb390d	-0.42816964
71	0x3ed04ce4	0.40683663
72	0x3e5464f1	0.20741631
73	0x3cd61259	0.026131796
74	0xbe5ad316	-0.21369585
75	0xbe4181c0	-0.18897152
76	0x3db6ab1a	0.08919354
77	0xbed340dd	-0.41260424
78	0x3ed1b663	0.40959463
79	0x3db52e3d	0.0884671
80	0xbe6aea59	-0.22940959
81	0xbe352d4c	-0.1769306
82	0x3efe5606	0.49675006
83	0xbea21863	-0.3165923
84	0x3e37e786	0.17959413
85	0x3e1f55f0	0.15560126
86	0x3df5b2c0	0.119969845
87	0xbf02b51b	-0.51057595
88	0x3e8486d6	0.25884122
89	0x3dbf96d4	0.0935494
90	0xbe05d365	-0.13068922
91	0x3e015d5f	0.12633274
92	0x3e822cff	0.25424954
93	0xbec12700	-0.37725067
94	0x3e3f534f	0.18684123
95	0xbf01e519	-0.507402
96	0x3ec21f05	0.3791429
97	0xbeb8fe52	-0.3613153
98	0x3ece3bfa	0.40280133
99	0x3e03a035	0.12854083
100	0xbeb9add0	-0.3626542
101	0xbe380493	-0.17970495
102	0x3f009eaa	0.502421
103	0xbe9c5416	-0.30532902
104	0x3e85152b	0.25992712
105	0x3ae890cb	0.0017743347
106	0xbe7179ef	-0.2358167
107	0x3bedfe18	0.0072629564
108	0xbd5bb188	-0.053636104
109	0x3d834927	0.06410437
110	0xbe8ff03d	-0.28112975
111	0x3d947d8d	0.072505094
112	0xbe70c311	-0.23511912
113	0x3eff3ff4	0.4985348
114	0xbdc1edbe	-0.09469174
115	0xbe79d033	-0.24395828
116	0xbda2b474	-0.07944575
117	0xbcc73ac4	-0.024320014
118	0x3e752c8d	0.23942776
119	0x3ea944fd	0.33060446
120	0x3c3c78fe	0.011503456
121	0x3e01918f	0.12653182
122	0x3d312231	0.043245498
123	0x3e9918b6	0.29901665
124	0xbee37858	-0.44427752
125	0xbdf3319f	-0.11874699
126	0x3e9ffd04	0.31247723
127	0xbd77bd9b	-0.060483556
128	0xbe686a66	-0.22696838
129	0x3db02a46	0.08601813
130	0xbd584b3b	-0.05280612
131	0x3e180a2a	0.14847627
132	0x3e84843d	0.2588214
133	0xbd3eb70a	-0.04656128
134	0xbe96fa82	-0.29487997
135	0xbe4e37ae	-0.20138428
136	0x3d45782c	0.048210308
137	0x3db16925	0.08662633
138	0xbe491c20	-0.19639635
139	0x3ebfecd1	0.37485364
140	0xbc15fa68	-0.00915394
141	0x3ec9ba6a	0.39400035
142	0x3dca1419	0.098671146
143	0xbda8004f	-0.08203184
144	0xbe83dbad	-0.25753537
145	0x3e0012a9	0.12507118
146	0x3e4e4c5e	0.2014632
147	0xbec08e1b	-0.37608418
148	0x3ec0f11c	0.37683952
149	0xbed169e8	-0.40901113
150	0x3e7ef3f0	0.24897742
151	0xbe9e1614	-0.3087622
152	0xbe78a8ee	-0.24283192
153	0x3d901e4b	0.07037028
154	0xbd8578ca	-0.06517179
155	0x3d5fb890	0.054619372
156	0xbe93483c	-0.28766048
157	0xbc10ac59	-0.008830153
158	0x3e25a50f	0.16176246
159	0x3da270d2	0.07931675

conv_net.0.bias f4 [32]
0	0x3f0e53c6	0.5559658
1	0x3e4d4bef	0.20048498
2	0xbeb0a767	-0.34502718
3	0xbdfdd5d9	-0.12394304
4	0x3e817aec	0.25289094
5	0xbd99bc9d	-0.07506678
6	0xbef856f6	-0.48503846
7	0x3c173f0e	0.009231342
8	0x3d5c5103	0.053788196
9	0x3de705c9	0.112804
10	0xbe6a1488	-0.22859395
11	0x3f147f8b	0.58007115
12	0xbf0f6a93	-0.56021994
13	0x3ee59342	0.4483891
14	0xbeccd105	-0.4000322
15	0x3eff3067	0.49841616
16	0xbe95a801	-0.2922974
17	0xbedb7f31	-0.42870477
18	0xbe8f1003	-0.27941903
19	0x3ebbbd01	0.36667636
20	0xbcd8b2e8	-0.026452497
21	0xbdecea15	-0.11568085
22	0x3ec4e62d	0.3845686
23	0xbe0429c5	-0.12906559
24	0xbe627107	-0.22113429
25	0x3e184607	0.14870463
26	0xbcbf4a40	-0.023350835
27	0x3f04d5c5	0.51888686
28	0x3ea795e8	0.32731557
29	0xbf12db2f	-0.573657
30	0x3f058ae0	0.5216503
31	0x3eb04b9e	0.3443269

conv_net.2.weight f4 [64, 32, 5]
0	0xbcec4d2b	-0.02884539
1	0xbdf39df7	-0.11895364
2	0x3bb09471	0.0053887893
3	0xbc4cb1f4	-0.012493599
4	0xbe20724b	-0.156686
5	0x3c8e2c7c	0.017355196
6	0xbd488cfc	-0.04896258
7	0xbd59edf5	-0.05320545
8	0x3d2ad60c	0.041708037
9	0x3d2a23d5	0.04153808
10	0x3d72db2c	0.05929105
11	0xbd054071	-0.03253216
12	0x3d1cc700	0.03827572
13	0xbda5fd6c	-0.08104977
14	0xbcb07d0c	-0.021544002
15	0x3c1ab178	0.009441726
16	0x3d8529e9	0.06502134
17	0x3de3786e	0.111069545
18	0x3dc2cdc5	0.09511904
19	0x3cb96ff6	0.022636395
20	0xbe3b1fc3	-0.18273835
21	0xbe41cb26	-0.18925151
22	0xbe5ffc98	-0.218737
23	0xbe8279b4	-0.25483477
24	0xbe13363f	-0.14376162
25	0x3d190bc1	0.037364725
26	0x3d6ebab6	0.05828353
27	0xbc174f5c	-0.009235229
28	0xbc7cb465	-0.015423869
29	0x3bcf88cd	0.0063334466
30	0xbc61b4c1	-0.013776005
31	0x3d10eee0	0.03538406
32	0x3d9d2878	0.076737344
33	0xbbff8e6d	-0.007798961
34	0x3c924a9e	0.017857846
35	0xbdae45b5	-0.08509389
36	0xbd082c97	-0.03324565
37	0xbc775877	-0.015096775
38	0xbd47873b	-0.04871295
39	0xbcb81342	-0.02247012
40	0xbd5ffcd1	-0.054684464
41	0xbdbe3dd5	-0.09289137
42	0x3d537d1f	0.051632997
43	0xbd7c70a6	-0.061630867
44	0x3d28a852	0.041176148
45	0x3d018309	0.031619105
46	0x3c8e755f	0.017389951
47	0x3d0325d1	0.032018486
48	0x3d127aae	0.035761528
49	0x3d51cbac	0.051219627
50	0x3be9092e	0.00711169
51	0x3bdf0d51	0.0068070074
52	0xbd9fcf57	-0.07803219
53	0xbd9b3600	-0.07578659
54	0x3c27bd78	0.010238044
55	0xbc93ab09	-0.018025892
56	0xbd89f8a6	-0.06736879
57	0x3b43c7cc	0.0029873727
58	0x3cd42542	0.025896672
59	0x3d1b198e	0.037866168
60	0xbd8dec19	-0.06929798
61	0x3d7fd2c0	0.062456846
62	0xba74220d	-0.0009312935
63	0xbc58c033	-0.013229418
64	0xbd7b7a8d	-0.06139617
65	0x3d246a76	0.04014059
66	0xbb4e61f8	-0.00314915
67	0x3cdf0e13	0.02722839
68	0x3c5a3c67	0.013320065
69	0xbdc5d541	-0.096598156
70	0xba90fa11	-0.0011060854
71	0xbc4bbec3	-0.012435618
72	0x3d016d98	0.031598657
73	0xbb4a6c8f	-0.003088746
74	0x3d1d3737	0.038382735
75	0xbdb63054	-0.088959366
76	0xbdca07cf	-0.098647706
77	0xbc05b4bb	-0.008160765
78	0xbdafa573	-0.08576479
79	0xbc30b7d1	-0.010786013
80	0x3d067cc0	0.032833815
81	0xbc891f2a	-0.016738493
82	0xbd3487e7	-0.04407492
83	0x3d32ef4f	0.043685254
84	0xbd90797e	-0.07054423
85	0x3d069660	0.032858253
86	0x3d82b784	0.06382659
87	0xbd0cfdb4	-0.034421638
88	0x3d71a4c3	0.05899502
89	0x3d3e185d	0.046409953
90	0xbbb1a23b	-0.0054209507
91	0xbdaadd60	-0.08343005
92	0xbdb4b196	-0.08822934
93	0xbd7e4b89	-0.062083755
94	0xbd8a3ddf	-0.06750082
95	0xbdaf571c	-0.08561537
96	0xbdbe5e45	-0.09295324
97	0xbbdba290	-0.0067027286
98	0xbdec2020	-0.11529565
99	0xbd8129c9	-0.06306798
100	0xbc672a06	-0.01410914
101	0xbc6af03d	-0.014339504
102	0x3c18382a	0.009290734
103	0xbcfc2fb6	-0.03078447
104	0xbd320af6	-0.043467484
105	0xbcecf6f8	-0.028926358
106	0xbcf06e39	-0.029349433
107	0xbb974c07	-0.0046172175
108	0xbc030ca3	-0.007998618
109	0x3d22cd78	0.03974673
110	0x3c4382c6	0.011933034
111	0x3c889a9c	0.016675286
112	0xbd4ac55b	-0.04950462
113	0xbd720bf4	-0.05909343
114	0x3bac771c	0.0052632224
115	0x3d597b3d	0.053096045
116	0xbd4a317d	-0.049363602
117	0x3c5629ab	0.013071458
118	0xba8eb266	-0.0010886907
119	0xbd2d28ec	-0.042275354
120	0xbd9a2985	-0.075274505
121	0x3d91b6bd	0.07114933
122	0x3cc51dc9	0.024062054
123	0xbce41294	-0.02784089
124	0x3d3a16eb	0.045432013
125	0xbd21c5d3	-0.0394953
126	0xbc44f55f	-0.012021392
127	0xbdb2f775	-0.08738605
128	0xbdd2441f	-0.10266899
129	0x3ceb509b	0.02872496
130	0x3d3f536a	0.04671041
131	0x3c94f0c2	0.018181209
132	0xbceee1cc	-0.029160403
133	0x3db5991e	0.088670954
134	0x3db138dc	0.08653423
135	0x3c94fede	0.018187936
136	0xbb4608b4	-0.003021759
137	0xbcb321f9	-0.021866785
138	0xbd933f59	-0.07189817
139	0xbd14fd86	-0.03637459
140	0xbd860dba	-0.06545587
141	0x3d5ddcfd	0.05416583
142	0xbd642227	-0.055696633
143	0x3ae8f685	0.0017773664
144	0xbba93a39	-0.0051644114
145	0x3c7dd5ba	0.015492851
146	0x3d3a177a	0.045432545
147	0xbd3e435f	-0.04645097
148	0x3dc9cd77	0.098536424
149	0xbcec99e1	-0.028881969
150	0xbd4b5957	-0.049645748
151	0x3d42e92e	0.04758566
152	0xbc729d2d	-0.014807981
153	0x3c900e86	0.01758505
154	0x3d6ad8f1	0.057335798
155	0xbcb641c9	-0.022248166
156	0x3c9b9bdb	0.018995216
157	0x3d53ef8c	0.05174212
158	0xbd4b06ef	-0.04956716
159	0x3c227168	0.0099147335
160	0x3cfa3b13	0.030545747
161	0x3da542aa	0.08069356
162	0x3da8d803	0.08244326
163	0x3ded3326	0.115820214
164	0x3d7a3c13	0.061092447
165	0xbd4e56a7	-0.050375607
166	0xbd809b5c	-0.062796324
167	0x3d1ed7c1	0.038779978
168	0x3d68e752	0.05686123
169	0x3ca7eea4	0.020499535
170	0xbc64fe37	-0.013976625
171	0xbdd883fa	-0.105720475
172	0xbdc1ad32	-0.094568625
173	0x3d045d9c	0.032315835
174	0x3b8629f2	0.0040943557
175	0x3c9aba16	0.01888756
176	0x3dfc3e03	0.12316515
177	0x3da52af3	0.080648325
178	0x3dbbfc1e	0.09178947
179	0x3cb027b8	0.021503314
180	0xbe19e0e7	-0.150272
181	0xbe3dcee1	-0.1853595
182	0xbe333950	-0.17502332
183	0xbdf44597	-0.11927336
184	0xbe04ccc5	-0.12968738
185	0x3c73979a	0.014867688
186	0xbd09eeb1	-0.0336749
187	0xbd728954	-0.059212998
188	0xbd8e3aab	-0.06944784
189	0x3c821765	0.015880296
190	0x3d987d13	0.07445731
191	0x3d9fa4a6	0.07795076
192	0xbcd8ded6	-0.026473444
193	0xbcd1d47b	-0.025614014
194	0x3cd7831b	0.026307633
195	0x3c32fe5b	0.010924901
196	0xbd1f96b4	-0.03896208
197	0xbbf67c88	-0.0075221695
198	0x3d1acc07	0.037792232
199	0xbd0afd2b	-0.033932846
200	0x3d1bd65a	0.03804622
201	0xbd40bcf3	-0.047055196
202	0xbd239602	-0.03993798
203	0x3d745b67	0.05965748
204	0xbca8b7f2	-0.020595524
205	0x3d912a7b	0.07088181
206	0x3d0c7e7a	0.034300305
207	0x3c2237d5	0.009901007
208	0x3d0679cc	0.032831
209	0x3d1406a8	0.03613916
210	0xbc3a4117	-0.011368058
211	0xbd78f470	-0.06077999
212	0xbcd99993	-0.026562488
213	0xbda8f783	-0.08250334
214	0x3caefa70	0.021359652
215	0xbc4a072e	-0.012330813
216	0x3d702413	0.058628153
217	0xbcbc7936	-0.023007017
218	0x3c07a863	0.008279893
219	0xbd3a4a57	-0.045481052
220	0x3bdf4509	0.0068136496
221	0x3d2692c9	0.04066733
222	0x3cc2ea2a	0.023793299
223	0xbdb2afb2	-0.087249175
224	0xbdc7791f	-0.09739899
225	0xbd606371	-0.054782335
226	0xbc8b975f	-0.017039953
227	0x39c83286	0.00038184616
228	0xbdc9899b	-0.09840699
229	0xbd9590ab	-0.07302984
230	0xbd96c1b8	-0.07361168
231	0xbc2f17bf	-0.010686814
232	0xbd053882	-0.032524593
233	0x3d57e3f1	0.052707616
234	0xbd6dcf54	-0.05805905
235	0xbe027f9d	-0.12743993
236	0xbdd7d314	-0.10538307
237	0xbdc07896	-0.09398
238	0xbdd5507b	-0.10415741
239	0x3cbcd30d	0.023049856
240	0x3c521958	0.012823425
241	0xbd1fec91	-0.039043967
242	0xbd1ac15a	-0.03778205
243	0xbcacea20	-0.021107733
244	0x3d8a50ae	0.0675367
245	0x3c40933e	0.011753855
246	0x3d8d2612	0.06892027
247	0x3c2631ae	0.0101436805
248	0xb9860f79	-0.0002557
249	0x3c6cf9e3	0.0144638745
250	0x3c872e27	0.0165015
251	0xbd3f567f	-0.04671335
252	0x3d3c1ac6	0.04592397
253	0xbd15e23b	-0.036592703
254	0xbdb8178f	-0.089888684
255	0xbd8c7d79	-0.068598695

conv_net.2.bias f4 [64]
0	0xbe04cae1	-0.12968017
1	0x3c9c5147	0.019081725
2	0x3e0c8608	0.13723004
3	0x3e848dc2	0.25889403
4	0xbc430c4b	-0.011904786
5	0x3d1ae538	0.037816256
6	0x3e052c3d	0.13005157
7	0xbdab74db	-0.08371898
8	0x3d2282b6	0.039675437
9	0x3cf74fcc	0.030189417
10	0x3deab07e	0.114594445
11	0x3cccd831	0.025005432
12	0x3e45b9f1	0.19309212
13	0x3da14377	0.07874196
14	0x3e3915b4	0.18074685
15	0x3e6bc80e	0.23025534
16	0xbda6933b	-0.08133551
17	0xbd3345b9	-0.043767665
18	0xbe49ad57	-0.1969503
19	0x3dd8565e	0.10563348
20	0x3d605864	0.054771796
21	0xbe2fb387	-0.17158328
22	0xbe1584ef	-0.14601491
23	0x3e8a1d3b	0.26975426
24	0xbdd5a179	-0.10431189
25	0x3ce91a37	0.028454883
26	0xbd894afd	-0.06703756
27	0x3d6987e9	0.05701438
28	0x3e6ad537	0.22932898
29	0x3c5641a4	0.013077173
30	0xbddde8ee	-0.108354434
31	0xbca05f97	-0.01957683
32	0x3c3b159f	0.011418729
33	0xbccaa07d	-0.02473473
34	0x3e455221	0.19269611
35	0xbe483710	-0.19552255
36	0xbcfa5c9f	-0.030561743
37	0xbe5ccd2f	-0.21562646
38	0x3d930c34	0.07180062
39	0x3da5c3f7	0.08094018
40	0xbdf6ee56	-0.12057178
41	0x3e02dcc8	0.12779534
42	0xbdc8a96e	-0.09797941
43	0xbc91f466	-0.017816734
44	0xbce90f33	-0.02844963
45	0xbd8b3bdd	-0.067985274
46	0x3c5abf58	0.013351284
47	0x3c4ed649	0.012624332
48	0xbd85cd85	-0.0653334
49	0x3c67ea7b	0.014155026
50	0xbe6d5d0b	-0.23180024
51	0xbdda7269	-0.10666353
52	0x3e821891	0.25409368
53	0xbea07099	-0.31335905
54	0x3e065bcc	0.13120955
55	0x3ccf1048	0.025276318
56	0xbde12233	-0.10992851
57	0x3d3fd87d	0.04683732
58	0xbdca91fa	-0.09891124
59	0x3c9c64b4	0.019090988
60	0xbd5563f2	-0.05209727
61	0x3e3ad97c	0.18247026
62	0xbd2f437c	-0.042788967
63	0x3d8596b0	0.06522882

conv_net.4.weight f4 [64, 64, 7]
0	0x3cf63657	0.030055208
1	0x3c5dd7f0	0.013540253
2	0xbcc900e2	-0.024536554
3	0xbd53fdb5	-0.051755626
4	0xbcacb952	-0.021084461
5	0x3ce51f0a	0.027968902
6	0xbd093937	-0.03350183
7	0x3ce71012	0.028205905
8	0x3b167829	0.0022959805
9	0xbcc34fca	-0.023841757
10	0xbc599ec9	-0.013282486
11	0xbbf276b3	-0.007399404
12	0xbd41ce7f	-0.04731607
13	0x3d11eb2d	0.03562467
14	0xbc781931	-0.015142725
15	0xbce127e7	-0.027484847
16	0xbc219f73	-0.009864676
17	0x3ce67125	0.028130123
18	0xbd65503f	-0.05598473
19	0xbd7492ae	-0.059710197
20	0xbcb41d1a	-0.021986533
21	0xbb974751	-0.004616656
22	0x3cc55346	0.02408756
23	0x3d709303	0.05873395
24	0xbd13d8fe	-0.03609561
25	0xbccf1e22	-0.025282923
26	0xbcfc9b98	-0.030835912
27	0xbbb1dfe1	-0.0054283
28	0x3cc7865d	0.024356062
29	0xbc56dccc	-0.0131141655
30	0xbcd29dde	-0.025710043
31	0x3d083497	0.03325328
32	0xbc832295	-0.016007701
33	0x3c565673	0.013082135
34	0xbcc305b3	-0.023806429
35	0x3b7af9f3	0.0038295954
36	0xbcc59479	-0.024118649
37	0xbcfca533	-0.030840492
38	0x3bb920f4	0.0056496803
39	0xbda1454b	-0.07874545
40	0xbd5c8eb2	-0.053847022
41	0x3c16cf2c	0.009204667
42	0xbd1cb86d	-0.03826182
43	0xbd733ff3	-0.05938716
44	0xbc6acbfa	-0.014330858
45	0xbc78dabf	-0.015188872
46	0xbb809d26	-0.0039249836
47	0x3ccf0c2e	0.025274362
48	0xbcabf31e	-0.02098995
49	0x3cacad21	0.021078648
50	0xbc8fabc6	-0.017537963
51	0xbd03493f	-0.032052275
52	0xbd7848a1	-0.06061614
53	0x3c9027e2	0.017597143
54	0xbdabac93	-0.08382525
55	0xbc89d3b7	-0.016824586
56	0x3d3ba3e0	0.04581058
57	0xbcef9d9e	-0.029249962
58	0x3d370b08	0.044688255
59	0xbcca469f	-0.024691878
60	0x3d369609	0.04457668
61	0xbcb6332a	-0.022241194
62	0xba6cfb4c	-0.00090401317
63	0xbc9ec759	-0.019382166
64	0x3d4b1b09	0.04958633
65	0x3c7fd7fd	0.01561546
66	0x3bcfd388	0.006342355
67	0xbbe9ba2e	-0.00713279
68	0xbcf3cdcb	-0.029761216
69	0xbc611f10	-0.013740316
70	0x3c40b63c	0.011762198
71	0xbbaa91e0	-0.005205378
72	0x3cda8607	0.026675237
73	0xb956405a	-0.00020432603
74	0x3b9de58e	0.004818625
75	0xbd54e0b7	-0.051972117
76	0xbd880c4b	-0.0664297
77	0x3cc96dd3	0.024588501
78	0xbd121619	-0.035665605
79	0x3d52457b	0.051335793
80	0xbd6ed594	-0.058309153
81	0xbc83535f	-0.016030965
82	0xbbd12695	-0.006382773
83	0x3c8ffd74	0.01757691
84	0xbcdfe85e	-0.027332481
85	0x3d83e2a5	0.064397134
86	0xbc293964	-0.010328624
87	0x3c4ce48c	0.012505662
88	0xbc2abbc2	-0.0104207415
89	0x3a524849	0.00080216356
90	0xbd1357d8	-0.035972446
91	0xbd012f87	-0.031539466
92	0x3d21c022	0.039489873
93	0x3b4bceee	0.0031098682
94	0xbc9e324a	-0.019311089
95	0x3a07e59b	0.0005184055
96	0xba6c64d3	-0.00090177095
97	0x3d16a0fe	0.036774628
98	0x3cac410e	0.021027114
99	0x3d812ab0	0.0630697
100	0x3c2f9dd7	0.010718784
101	0xbbe248bd	-0.0069056437
102	0x3d5e1d98	0.05422744
103	0x3d80980f	0.06279003
104	0x3d82c44e	0.063850984
105	0x3d4ed097	0.050491896
106	0x3c71c4d9	0.014756405
107	0xbcb26867	-0.021778299
108	0x3b6fbac7	0.0036579834
109	0xbc7fed4f	-0.015620544
110	0x3c2d5b88	0.010580905
111	0xbba2d001	-0.0049686437
112	0xbcf609f7	-0.030034048
113	0xbce800de	-0.028320726
114	0xbc640123	-0.013916287
115	0xbd5f01ac	-0.054444954
116	0xbd45db89	-0.04830507
117	0x3ca1228f	0.0196698
118	0x3c7cad77	0.015422217
119	0x3d44a52e	0.04800909
120	0x3cbc96be	0.023021098
121	0xbd0986b3	-0.033575725
122	0x3d17e1c0	0.037080526
123	0x3cb461a0	0.022019207
124	0x3bb323ca	0.005466913
125	0x3d041085	0.032242317
126	0xbd5245a7	-0.051335957
127	0x3c39aa76	0.011332145
128	0xbd361c9e	-0.044460885
129	0xbd359ac0	-0.044337034
130	0x3cd0336d	0.025415147
131	0xba8c9e74	-0.0010728375
132	0x3ca4728a	0.020074148
133	0xbc0f65ec	-0.008752327
134	0x3d7129c7	0.058877733
135	0x3c938e47	0.018012179
136	0x3d2248a1	0.039620046
137	0xbce94611	-0.028475793
138	0xbd0e541b	-0.034748178
139	0xbc3b421c	-0.011429336
140	0x3d59a473	0.053135347
141	0x3c4eaa8f	0.0126139065
142	0xbc5eaf61	-0.013591618
143	0xbd3f18a7	-0.04665437
144	0x3b805bdb	0.0039172
145	0x3cc1b0c7	0.023643864
146	0x3d1218fb	0.035668354
147	0xbd000459	-0.031254146
148	0xbb0101fa	-0.0019685016
149	0xba97bc65	-0.0011576532
150	0xbd450caf	-0.0481078
151	0xbd7380f9	-0.05944917
152	0x3b160dfb	0.0022896517
153	0x3c6a33f1	0.01429461
154	0x3cde6892	0.027149472
155	0xbca19030	-0.019722074
156	0xbd77571a	-0.0603858
157	0xbcbacaac	-0.02280172
158	0xb9498b3a	-0.0001922072
159	0x3cf1338d	0.029443527
160	0xbc28e766	-0.010309076
161	0x3d930a9b	0.07179757
162	0x3bf7142f	0.007540248
163	0xbc3ad5db	-0.011403526
164	0x3c20dfdc	0.009818997
165	0x3d74365a	0.059622146
166	0x3d99f3de	0.07517217
167	0x3d09c14e	0.033631615
168	0x3d01161d	0.03151523
169	0x3cb3b716	0.021937888
170	0x3c66b56e	0.014081342
171	0x3b3fe2ef	0.002927955
172	0x3b87a9ce	0.0041401153
173	0xbca1f486	-0.019769918
174	0xbd3ac542	-0.045598276
175	0x3c4748a8	0.012163319
176	0x3cfa04d6	0.030519884
177	0xbd99ed2e	-0.075159416
178	0xbd68dce2	-0.056851275
179	0xbd10aad6	-0.03531917
180	0xbd8bc608	-0.06824881
181	0xbd949757	-0.07255428
182	0x3b8f3294	0.004370043
183	0x3b30e5c1	0.0026992413
184	0xbc4670dc	-0.012111869
185	0xbccffed8	-0.025390074
186	0x3d2d7c7d	0.04235505
187	0x3cc5afff	0.024131773
188	0xbcda874f	-0.026675848
189	0x3d41afee	0.04728692
190	0xbcf22332	-0.029557798
191	0x3d161087	0.036636855
192	0x3d03c8a2	0.03217376
193	0xbcaf52ee	-0.021401849
194	0x3ae997ce	0.001782173
195	0xbd58aa06	-0.052896522
196	0x3d74b4bf	0.059742685
197	0x3b242fb5	0.002505285
198	0x3ca5f556	0.020258587
199	0x3d70e160	0.058808684
200	0x3d99ab12	0.07503332
201	0x3d5273ec	0.051380083
202	0x3d938c5b	0.07204505
203	0xbba71409	-0.005098824
204	0x3d9da382	0.07697202
205	0x3c2b7012	0.010463731
206	0x3c94b7f2	0.018154118
207	0xbd11ad14	-0.03556545
208	0x3d714e05	0.058912296
209	0xbd462579	-0.04837558
210	0x3c9fd701	0.019511702
211	0x3bde26d3	0.0067795306
212	0x3dbe1ff5	0.09283439
213	0x3d3d6bed	0.046245504
214	0x3d2a9d72	0.041654058
215	0x3d697684	0.05699779
216	0xbcfd6b3d	-0.030934924
217	0x3c798083	0.0152283935
218	0x3d23a3f1	0.03995127
219	0x3db87ede	0.09008573
220	0x396c1cbd	0.0002251742
221	0xbd6ba56c	-0.057530805
222	0xbc04b819	-0.008100533
223	0xbca09cb5	-0.019605974
224	0x3d25f411	0.040515963
225	0xbcc8cd9b	-0.024512103
226	0x3c85b4ab	0.0163215
227	0x3d49cfdc	0.049270496
228	0xbbe3cac9	-0.006951664
229	0xbacfd4d9	-0.001585628
230	0xbb3e8bbc	-0.0029074987
231	0x3c816a2b	0.015797695
232	0x3d46326c	0.04838793
233	0xbcce1833	-0.025158023
234	0xbce48e83	-0.027899986
235	0xbd638af9	-0.055552457
236	0x3ab35d40	0.0013684407
237	0xbd4a64a4	-0.049412385
238	0xbc2998a8	-0.0103513375
239	0x3ce7976f	0.028270451
240	0x3c155c46	0.009116238
241	0xbd25fe88	-0.040525943
242	0xbcab1650	-0.020884663
243	0x3c5864ce	0.013207627
244	0x3d0395b8	0.032125205
245	0x3c83a9a2	0.016072098
246	0x3d092d5e	0.03349053
247	0xbbe43da3	-0.0069653555
248	0xbc1acef9	-0.00944876
249	0xbca88fe0	-0.020576417
250	0xbcbba5a2	-0.022906128
251	0xbcf962db	-0.030442646
252	0x3cfa73ef	0.03057286
253	0x3cd23d6a	0.02566405
254	0x3c21a0d1	0.009865002
255	0xbca77a77	-0.020444138

conv_net.4.bias f4 [64]
0	0x3ca9c7b7	0.020725114
1	0x3e3b2b36	0.18278202
2	0xbe1963cc	-0.14979476
3	0x3eb40ceb	0.35166106
4	0x3d3e2071	0.046417657
5	0x3e69d68c	0.2283575
6	0xbe9da7bd	-0.30792037
7	0xbdc24484	-0.094857246
8	0x3be5a821	0.007008568
9	0x3e21f5ae	0.15816376
10	0x3e298242	0.16553596
11	0x3cbfedff	0.023428915
12	0x3ebfc8eb	0.37457976
13	0x3c849b22	0.016187254
14	0x3de3240b	0.11090859
15	0xbbfc1597	-0.0076930034
16	0x3d9e32e0	0.077245474
17	0x3d4f4534	0.050603107
18	0xbd381e2d	-0.044950653
19	0xbe837470	-0.25674772
20	0x3dc08650	0.09400618
21	0x3ed496b1	0.41521218
22	0xbd14b6af	-0.036307033
23	0x3d805a1a	0.062671855
24	0x3d5b393b	0.053521376
25	0xbdb407d6	-0.08790557
26	0xbe29a713	-0.1656764
27	0x3cb1937a	0.021676768
28	0x3de8b93e	0.11363457
29	0x3c787e21	0.01516679
30	0x3c9223dd	0.017839367
31	0x3ddf86b6	0.10914366
32	0x3e4dce00	0.20098114
33	0x3d5390de	0.051651828
34	0xbddc1054	-0.10745302
35	0xbd913dbb	-0.07091852
36	0xbd1c8785	-0.03821518
37	0xbd2124d9	-0.03934178
38	0x3dabfe6e	0.08398138
39	0xbe8b58ad	-0.27216092
40	0x3eb49f83	0.35277948
41	0x3e3aa4cd	0.18226929
42	0xbdbe7a8d	-0.093007185
43	0xbe5377d0	-0.20651174
44	0x3a7b34eb	0.00095827755
45	0xbd15a9cb	-0.03653888
46	0x3d2761a5	0.040864605
47	0x3e2b278c	0.16714305
48	0x3d01acef	0.031659063
49	0x3e21181e	0.15731856
50	0xbd90fc47	-0.07079368
51	0xbe046f7e	-0.12933156
52	0xbe44e832	-0.192292
53	0x3e367cf8	0.1782111
54	0xbe41561d	-0.18880506
55	0x3caaeb93	0.020864284
56	0x3de555f5	0.11198036
57	0xbe332a57	-0.1749662
58	0x3d125f93	0.035735678
59	0xbc884e11	-0.016638787
60	0x3e971459	0.29507712
61	0xbe266e1d	-0.16252942
62	0xbbe09b7f	-0.006854474
63	0x3ef2cff0	0.4742427

regressor.0.weight f4 [64, 64]
0	0xbd8993e7	-0.06717663
1	0x3d78a4e6	0.060704134
2	0xbd8e8fa7	-0.06960993
3	0xbd5e32a3	-0.05424751
4	0xbda10863	-0.07862928
5	0x3d6fa5bb	0.058507662
6	0x3de8ee1d	0.113735415
7	0xbd8cdb65	-0.06877784
8	0xbdee13d8	-0.11624879
9	0xbddf6335	-0.10907594
10	0xbd61e536	-0.055150233
11	0xbc9e3722	-0.019313399
12	0xbdaf04de	-0.0854585
13	0xbd50da5f	-0.050989505
14	0x3d6301b3	0.055421542
15	0x3a810dc7	0.0009846025
16	0x3dc49aa7	0.0959981
17	0xbd9fbfef	-0.0780028
18	0x3dc89db4	0.097957045
19	0xbd67a96c	-0.056558058
20	0xbce715bd	-0.028208608
21	0xbc94f23c	-0.018181913
22	0x3addbddb	0.0016917543
23	0x3d050c60	0.032482505
24	0xbc6de278	-0.014519326
25	0x3d87c035	0.066284575
26	0xbdae9ae4	-0.08525637
27	0x3d91a655	0.071118034
28	0xbd8ba28b	-0.06818112
29	0xbd8157b8	-0.06315559
30	0xbd4fa9ea	-0.050699152
31	0x3db20001	0.08691407
32	0xbcd588c0	-0.026066184
33	0xbda628af	-0.081132285
34	0xbdcfe7ba	-0.1015162
35	0xbdaa20d7	-0.08307045
36	0xbd6c57de	-0.057700984
37	0x3d4e1ccc	0.05032043
38	0xbd96e7d6	-0.07368438
39	0x3d40e66b	0.047094744
40	0xbd930126	-0.071779534
41	0xbdd492ce	-0.10379563
42	0x3e07a3a6	0.1324602
43	0x3acb745d	0.001552235
44	0x3d793884	0.060844913
45	0xbd6612b8	-0.056170195
46	0x3ddbbb4c	0.107290834
47	0xbd9980ae	-0.07495247
48	0x3d4ea15a	0.050446846
49	0x3d0d3467	0.034473803
50	0xbda23993	-0.07921138
51	0xbda0ae56	-0.07845752
52	0xbddf14ab	-0.10892614
53	0xbde5be0d	-0.1121789
54	0xbdd771ce	-0.105197534
55	0xbdb7ee1c	-0.08980963
56	0xbd84459a	-0.06458588
57	0x3ddb104e	0.10696469
58	0x3d242094	0.04007013
59	0xbdec3b89	-0.11534793
60	0x3cd1805d	0.025573904
61	0x3ddb707a	0.107148126
62	0xbdac387a	-0.084092095
63	0xbd3f7dc5	-0.046750803
64	0xbcd70c0c	-0.026250862
65	0x3d64602b	0.055755775
66	0xbddcdf57	-0.10784786
67	0xbc9aa8c8	-0.01887931
68	0xbdcbfc03	-0.09960177
69	0x3b359935	0.0027709727
70	0xbd487b9b	-0.048946004
71	0x3cb5b475	0.022180775
72	0xbcb5528c	-0.022134088
73	0xbc70b584	-0.014691714
74	0xbd8744a1	-0.06604887
75	0xbcec1597	-0.028818889
76	0x3d43bffd	0.047790516
77	0x3d42dee9	0.047575865
78	0x3ddcf462	0.107888
79	0xbdb6c5e8	-0.08924466
80	0x3dfc78b6	0.12327711
81	0x3d5fe363	0.054660212
82	0xbd317e23	-0.043333184
83	0x3d8f6068	0.0700081
84	0x3e09b473	0.13447742
85	0xbde2bfe1	-0.11071754
86	0x3d3674d5	0.044545013
87	0x3df328d3	0.11873021
88	0xbdc79d0b	-0.097467504
89	0xbce12174	-0.027481772
90	0xbbc6cb93	-0.0060667484
91	0xbd06fd54	-0.032956436
92	0x3e00fba9	0.12596
93	0x3b943725	0.0045231753
94	0xbd8a45b7	-0.06751578
95	0x3dda2b09	0.106527396
96	0xbc7312c6	-0.014836019
97	0x3ddf15b4	0.108928114
98	0x3ceaefac	0.028678738
99	0x3dcca610	0.099926114
100	0x3d2ce520	0.042210698
101	0xbd886f88	-0.06661898
102	0x3d2cb1d7	0.04216179
103	0xbb72c9ff	-0.0037046669
104	0xbd50cdb5	-0.050977428
105	0x3d94e951	0.07271064
106	0xbcf8aac0	-0.030354857
107	0x3d9be7f1	0.07612599
108	0x3d9815c3	0.07426026
109	0xbd145cc9	-0.0362213
110	0xbba11e2d	-0.0049169273
111	0x3d977a41	0.07396365
112	0x3d0d5b36	0.034510814
113	0x3c08594d	0.008322072
114	0x3d3cb7f7	0.04607388
115	0x3da40968	0.080096066
116	0x3db279fa	0.087146714
117	0x3db15b97	0.086600475
118	0xbda50fcd	-0.080596544
119	0xbdc8583a	-0.09782453
120	0x3dce95ba	0.10087152
121	0x3dd44e1d	0.103664614
122	0x3cb241bd	0.021759862
123	0xbd852ae1	-0.06502319
124	0xbda97114	-0.08273521
125	0x3d8c6610	0.068554044
126	0xbb98a9cf	-0.0046589146
127	0xbd570c04	-0.052501693
128	0xbe7ca81b	-0.24673502
129	0x3e1d4cb1	0.15361287
130	0xbd17febc	-0.037108168
131	0x3ea909f0	0.33015394
132	0x3d88600b	0.06658944
133	0x3e50a795	0.20376427
134	0xbde6c283	-0.11267569
135	0xbe12cc87	-0.14335833
136	0x3d2e624a	0.042574205
137	0x3d5e1e3d	0.054228056
138	0xbcd90979	-0.026493775
139	0xbddfa261	-0.10919643
140	0x3e8974c8	0.2684691
141	0x3d3fe612	0.04685027
142	0x3dab5de9	0.08367521
143	0xbaea0b7a	-0.0017856203
144	0x3c978cef	0.01849982
145	0xbdde5da6	-0.10857706
146	0xbe4be747	-0.19912444
147	0xbe1b95b6	-0.15193829
148	0xbd8d646d	-0.0690392
149	0x3bfca109	0.0077096266
150	0xbdcd391d	-0.10020659
151	0x3d4019dc	0.04689966
152	0xbe258493	-0.16163854
153	0xbdf25d7a	-0.118342355
154	0xbe12103f	-0.1426401
155	0xbc9ac2f8	-0.018891796
156	0x3db7c445	0.08972982
157	0xbd8ecbc6	-0.069724604
158	0xbd8818e9	-0.06645376
159	0x3c824113	0.01590017
160	0x3de32e68	0.11092836
161	0xbd63c609	-0.055608783
162	0xbdef5c3c	-0.11687514
163	0xbd8d4436	-0.06897776
164	0xbda8df5f	-0.0824573
165	0xbd506218	-0.0508748
166	0xbc9d1723	-0.019176072
167	0xbe4bdb7d	-0.19907947
168	0x3e52c61d	0.20583387
169	0x3d864454	0.06556001
170	0x3c238d6b	0.009982447
171	0xbc210c8d	-0.0098296525
172	0xbd538a7c	-0.05164574
173	0x3d0b3013	0.033981394
174	0xbcaa1846	-0.020763528
175	0xbd1f033b	-0.03882144
176	0x3d2deff8	0.04246518
177	0x3dde1f8e	0.10845862
178	0xbcaae9af	-0.020863382
179	0x3dc75882	0.097336784
180	0xbe0f8bb8	-0.14018142
181	0x3e8b00b4	0.27148974
182	0xbdab1d9d	-0.08355258
183	0x3cbba76b	0.02290698
184	0x3dae53ca	0.08512075
185	0xbec66927	-0.387521
186	0x3c23b1ff	0.009991168
187	0x3dc471ee	0.09592043
188	0x3dbe07ca	0.092788294
189	0xbdffa605	-0.124828376
190	0xbceda5aa	-0.029009659
191	0x3de7c438	0.11316723
192	0x3d4c7b86	0.04992249
193	0xbdaceea5	-0.08443955
194	0xbce7d7ac	-0.028301083
195	0xbe24c433	-0.16090469
196	0xbdeb099e	-0.11476444
197	0x3dc79e3e	0.09746979
198	0x3cfea49f	0.031084357
199	0x3c98ddef	0.018660514
200	0x3d9b272d	0.075758316
201	0xbd7dcb50	-0.061961472
202	0xbdebc2c7	-0.1151176
203	0xbd9406e1	-0.072278745
204	0xbbd5f25d	-0.006529136
205	0x3de5202f	0.11187779
206	0x3d289b54	0.041163757
207	0x3e0f769e	0.14010093
208	0x3d763239	0.06010649
209	0x3dd30070	0.10302818
210	0xbd658e22	-0.05604375
211	0xbc443c20	-0.011977226
212	0x3e001dc7	0.12511359
213	0xbde07675	-0.10960094
214	0xbda763e9	-0.08173353
215	0x3c480fdf	0.012210815
216	0xbda2f858	-0.07957524
217	0x3d7a4083	0.06109668
218	0x3d52b51c	0.05144225
219	0x3d6479a4	0.055780068
220	0x3dfa5681	0.122235306
221	0x3d8ec58d	0.069712736
222	0x3d164992	0.036691256
223	0x3df02022	0.11724879
224	0x3dfbdf2b	0.12298425
225	0xbd551ffe	-0.052032463
226	0x3da0589c	0.07829401
227	0x3cec2f92	0.028831277
228	0xbd7553c4	-0.05989434
229	0xbda1c1ea	-0.07898314
230	0x3d01c58a	0.03168253
231	0x3dac9542	0.08426906
232	0x3d5907ae	0.05298584
233	0xbd8ac492	-0.06775774
234	0x3c3983fd	0.011322972
235	0xbd9249b4	-0.07142964
236	0xbdb8b8d2	-0.09019627
237	0xbd9f27de	-0.07771276
238	0x3dd229ef	0.102619044
239	0xbc1635f6	-0.009168139
240	0x3d12ed32	0.03587074
241	0xbdcba234	-0.09943047
242	0x3df6708a	0.12033184
243	0x3d82da60	0.06389308
244	0xbcdc626c	-0.0269024
245	0xbd3ea66c	-0.04654543
246	0xbcb798e1	-0.022411766
247	0x3db6f96d	0.08934293
248	0xbd28351b	-0.04106627
249	0x3dcb1baa	0.09917386
250	0xbc924683	-0.017855888
251	0x3df6b9d8	0.12047166
252	0xbc8e141c	-0.017343573
253	0x3db26c20	0.087120295
254	0xbd0ea835	-0.034828383
255	0xbdd377d2	-0.10325588

regressor.0.bias f4 [64]
0	0xbe1a71e4	-0.15082508
1	0x3d99736e	0.074927196
2	0x3e9849ea	0.29743892
3	0xbd1bf2bc	-0.038073286
4	0xbe053fb6	-0.13012585
5	0x3e9c887f	0.30572888
6	0x3e87763b	0.2645739
7	0xbd425914	-0.047448233
8	0x3dd5192d	0.104051925
9	0x3d0b5a13	0.03402145
10	0x3d8ac084	0.06775001
11	0x3d5b3bbe	0.05352377
12	0xbcc6a321	-0.024247708
13	0x3dac2fca	0.084075525
14	0xbdbaeae6	-0.091268346
15	0xbd034eb4	-0.03205748
16	0x3e74546e	0.23860332
17	0x3eb1cc55	0.34726205
18	0x3e3da84d	0.18521233
19	0x3e404908	0.18777859
20	0x3ec7a3d8	0.3899219
21	0xbd83039c	-0.06397173
22	0xbd0fd8b0	-0.03511876
23	0x3ebba85d	0.36651888
24	0x3dcbef96	0.09957807
25	0x3d131626	0.035909794
26	0x3e57883b	0.21048062
27	0x3ea48cad	0.32138577
28	0xbd006dd8	-0.031354755
29	0x3e00d9d4	0.12583095
30	0xbc985e69	-0.018599706
31	0x3e70b211	0.23505427
32	0xbb89e31a	-0.004207981
33	0x3d041e4a	0.03225545
34	0xbe01d6e1	-0.12679626
35	0xbc4590bd	-0.012058434
36	0x3eb7ccc2	0.35898405
37	0xbd812dd2	-0.06307568
38	0xbd4d1014	-0.05006416
39	0x3db6d8cd	0.0892807
40	0x3e0fad2d	0.14030905
41	0x3e83ad1d	0.25718012
42	0xbcfe8ec9	-0.031073945
43	0xbea56c01	-0.32308963
44	0x3dfde8ca	0.123979166
45	0x3e0f9417	0.14021336
46	0x3dcd4ba3	0.10024192
47	0x3d931630	0.07181966
48	0xbe7027de	-0.23452708
49	0x3e99ade9	0.30015495
50	0x3e1e8507	0.15480433
51	0x3dec4b90	0.1153785
52	0xbdbe055a	-0.092783645
53	0x3e132d66	0.14372787
54	0xbc7b21ba	-0.015327865
55	0xbe395557	-0.18098961
56	0x3d8faed8	0.07015771
57	0x3c9c0d0e	0.019049194
58	0xbda50823	-0.080581926
59	0x3e0f5cc2	0.14000228
60	0xbddc5caf	-0.107598655
61	0x3e23ddd9	0.16002597
62	0x3d402310	0.04690844
63	0xbcde687f	-0.027149437

regressor.2.weight f4 [1, 64]
0	0xbd154152	-0.036439247
1	0x3dc7013a	0.09717031
2	0x3e9666e1	0.29375365
3	0x3d246ade	0.04014098
4	0x3c17f8c2	0.009275617
5	0x3d8bf894	0.06834522
6	0x3dacf324	0.08444813
7	0x3d4b75f3	0.049673032
8	0x3d54e914	0.051980093
9	0xbd881c67	-0.06646042
10	0xbdb05372	-0.08609666
11	0xbbaec0a5	-0.0053330236
12	0x3dce915e	0.1008632
13	0xbc6eff86	-0.014587289
14	0xbdf68878	-0.12037748
15	0x3b922acc	0.004460668
16	0x3d530f9e	0.051528566
17	0x3da4918b	0.080355726
18	0x3da8a940	0.08235407
19	0xbe1c247f	-0.15248297
20	0x3e4df49d	0.20112844
21	0xbd489b9a	-0.04897652
22	0x3defc61d	0.11707709
23	0x3e68ea88	0.22745717
24	0x3d711270	0.058855474
25	0xbca9f7d2	-0.020748053
26	0xbda36ef9	-0.07980151
27	0x3e02ad05	0.12761314
28	0xbd7ce77f	-0.06174421
29	0xbdbf61d6	-0.093448326
30	0xbd3575bb	-0.04430173
31	0x3e14b288	0.1452123
32	0x3df0f9cc	0.11766395
33	0x3d297daa	0.04137961
34	0xbe0891c0	-0.13336849
35	0x3d1a4346	0.037661813
36	0x3e0b815a	0.13623562
37	0x3d6362e4	0.05551423
38	0x3dc89182	0.097933784
39	0x3ccd5e18	0.025069281
40	0xbc2a6baf	-0.01040165
41	0x3e621b79	0.22080792
42	0xbd97ec74	-0.07418147
43	0xbd90a01a	-0.07061787
44	0x3da347da	0.07972689
45	0xbe0c396a	-0.13693777
46	0x3d1108ba	0.035408713
47	0xbdbae730	-0.09126127
48	0xbdc95da7	-0.09832316
49	0x3ee397b9	0.44451693
50	0x3dae2e1b	0.08504888
51	0x3e091c38	0.13389671
52	0xbe2180ac	-0.1577174
53	0xbdb2580e	-0.08708201
54	0x3d47ac03	0.048748028
55	0xbd397839	-0.04528067
56	0xbe2982f1	-0.16553856
57	0xbe896cf5	-0.2684094
58	0xbea27e92	-0.3173719
59	0x3df64ace	0.120259866
60	0xbb5189a8	-0.0031972919
61	0xbc092790	-0.008371249
62	0xbdce48fb	-0.10072514
63	0x3d311ba8	0.043239266
