model_weights.pth (torch, 73125 bytes, 9 tensors)

conv1.weight f4 [16, 1, 5]
0	0x3e7dd5e2	0.24788621
1	0xbeb2abaf	-0.3489661
2	0xbec0bba1	-0.3764315
3	0xb9516843	-0.00019970634
4	0x3e66af46	0.22527799
5	0x3c183401	0.009289742
6	0xbe64b3b8	-0.22334182
7	0xbdac60d4	-0.08416906
8	0x3ebeff4f	0.3730416
9	0xbda4b1a6	-0.08041696
10	0x3eb2d873	0.34930763
11	0xbe8eb031	-0.27868798
12	0xbe9a7d7f	-0.3017387
13	0xbc136ab5	-0.008997609
14	0xbd93d196	-0.0721771
15	0xbe8b2804	-0.27178967
16	0xbda820f1	-0.08209408
17	0xbc721162	-0.014774652
18	0xbdd0db00	-0.10198021
19	0x3e325123	0.17413764
20	0xbd188f4c	-0.037246034
21	0xbd1e2e26	-0.03861823
22	0xbe84fdef	-0.25974986
23	0xbd07d529	-0.03316227
24	0x3e3dd9f5	0.18540175
25	0x3cb3cf1d	0.021949345
26	0xbeb08a20	-0.3448038
27	0xbe2f3298	-0.17109144
28	0x3cbd9b27	0.023145271
29	0x3ed65792	0.41863686
30	0x3ea5d5c1	0.32389644
31	0x3d1d1fb8	0.038360327
32	0x3eaaf6b5	0.33391348
33	0x3dae24b8	0.08503097
34	0x3ea2b9ab	0.31782278
35	0xbcfd9624	-0.030955382
36	0x3ebef102	0.3729325
37	0xbdfd4ecb	-0.12368544
38	0xbd863dc0	-0.06554747
39	0xbe48c05c	-0.1960463
40	0x3e37ddd2	0.17955711
41	0x3e589e58	0.21154153
42	0xbec8c0be	-0.3920955
43	0x3ed53d65	0.41648403
44	0xbeceb36e	-0.4037127
45	0x3ec7a6b6	0.38994378
46	0xbdceff84	-0.101073295
47	0x3e4fadcd	0.20281143
48	0xbec7fbdb	-0.39059338
49	0x3d79de0a	0.06100277
50	0xbed8e184	-0.42359555
51	0xbde90442	-0.11377765
52	0x3ee023b0	0.43777227
53	0xbeaf91bb	-0.3429087
54	0x3edb213a	0.42798787
55	0x3e8e7453	0.27823123
56	0xbdb0069b	-0.0859501
57	0xbd5b5436	-0.053547107
58	0x3ea774fc	0.3270644
59	0xbeb816ec	-0.35954988
60	0x3c8ffc06	0.017576229
61	0x3ec40725	0.382867
62	0xbe38c1b5	-0.18042643
63	0xbe556ef7	-0.20843111
64	0x3e6c2e74	0.23064595
65	0xbd70666b	-0.058691423
66	0x3d1d5226	0.03840842
67	0x3c17484f	0.009233548
68	0x3d23e051	0.040008847
69	0xbd936a5e	-0.07198022
70	0xbecf51ec	-0.4049219
71	0x3ea9d151	0.33167508
72	0xbe91aef5	-0.28453794
73	0x3ec7c77e	0.39019388
74	0x3e4e6a99	0.20157851
75	0xbea4cf7e	-0.32189554
76	0xbd3cc0f5	-0.046082456
77	0xbe3ce9c6	-0.18448552
78	0x3e40bd45	0.188222
79	0x3ea3e016	0.32006902

conv1.bias f4 [16]
0	0x3ecff40c	0.4061588
1	0x3e322dc8	0.17400277
2	0xbef5cc05	-0.48007217
3	0xbf04d576	-0.51888216
4	0xbeae1a7b	-0.34004578
5	0x3ddb23ca	0.107001856
6	0x3e294dd6	0.16533598
7	0xbf1becf5	-0.6090844
8	0x3ee7ce36	0.45274514
9	0xbec1aef5	-0.37828794
10	0x3e0ba687	0.13637744
11	0xbf2a37ad	-0.66491205
12	0xbf13c665	-0.577246
13	0x3eb1cfde	0.34728903
14	0xbed4b9ad	-0.4154791
15	0x3edc3a74	0.43013346

conv2.weight f4 [32, 16, 5]
0	0x3dbed005	0.0931702
1	0xbd2d5722	-0.042319424
2	0x3d6a3a2f	0.057184394
3	0xbcdd9856	-0.027050178
4	0x3dad2d3d	0.08455894
5	0xbd3acc28	-0.045604855
6	0xbd985884	-0.07438758
7	0xbd41c602	-0.047307976
8	0x3c0451ac	0.008076113
9	0xbd8e7ab6	-0.06956999
10	0xbdef8f51	-0.11697257
11	0x3c8a5982	0.016888384
12	0xbd5f60f8	-0.054535836
13	0xbdbe01eb	-0.092777096
14	0xbd807ad0	-0.062734246
15	0x3dda1399	0.10648269
16	0x3d49939e	0.049213044
17	0xbdcd9d34	-0.1003975
18	0x3d73ef9d	0.059554685
19	0x3cd96ac9	0.026540177
20	0x3d37411a	0.04473982
21	0x3d36cfb1	0.044631664
22	0xbdae6904	-0.08516124
23	0xbd930140	-0.07177973
24	0xbcb9747e	-0.022638556
25	0x3dbb82e0	0.09155822
26	0x3d964a7e	0.07338427
27	0x3d549aa2	0.05190528
28	0xbb8222f9	-0.003971454
29	0xbda3d17e	-0.07998942
30	0x3dba06d3	0.09083333
31	0x3c60108b	0.013675819
32	0xbcd67503	-0.026178842
33	0x3d4223df	0.04739749
34	0x3b906838	0.004406955
35	0x3d5bb72a	0.053641476
36	0xbd8473ec	-0.06467423
37	0xbe101812	-0.14071682
38	0xbddde936	-0.10835497
39	0xbd498750	-0.04920131
40	0xbd690167	-0.056886103
41	0xbb56a18d	-0.00327501
42	0xbcdada66	-0.026715469
43	0xbdb25978	-0.08708471
44	0x3c2358ce	0.009969903
45	0x3d225f88	0.039641887
46	0xbdd37cc2	-0.1032653
47	0xba7a409f	-0.00095463725
48	0xbc895456	-0.016763847
49	0xbde03e0d	-0.10949335
50	0x3d03350c	0.03203301
51	0x3cf3c5c8	0.029757395
52	0x3d89ea42	0.06734134
53	0xbd14bf78	-0.03631541
54	0x3d77f01a	0.060531713
55	0xbd7a8879	-0.061165307
56	0x3c3efbe5	0.011656736
57	0xbd8e68d2	-0.06953587
58	0xbc900b7d	-0.017583603
59	0x3d087008	0.033309966
60	0x3c066a2b	0.008204023
61	0xbd9e08d4	-0.077165276
62	0x3c87111d	0.016487652
63	0xbd7fe0bd	-0.062470187
64	0xbdd32ed7	-0.10311668
65	0xbdc06daf	-0.093959205
66	0x3d0732dd	0.03300749
67	0xbda1eae7	-0.07906132
68	0x3d2291b5	0.03968974
69	0x3d56772a	0.052359737
70	0xbc661639	-0.014043384
71	0xbde0f793	-0.10984721
72	0xbd8e61ef	-0.06952273
73	0xbd98c2ab	-0.07459005
74	0xbd943fa7	-0.07238703
75	0x3db525f5	0.0884513
76	0x3d1065cf	0.035253342
77	0xbd246938	-0.040139407
78	0xbd6db534	-0.058034137
79	0x3d0a31cb	0.033738893
80	0x3dd81806	0.10551457
81	0xbc4f5069	-0.012653449
82	0x3dbd4041	0.09240771
83	0xbc6525bc	-0.013986047
84	0xbc83aea6	-0.01607449
85	0xbdadf89b	-0.08494683
86	0x3c7cb689	0.015424379
87	0x3c4686b3	0.012117076
88	0xbd936500	-0.071969986
89	0xbde2201b	-0.1104128
90	0x3cbcfaeb	0.023068866
91	0xbdc8fc5b	-0.09813758
92	0xbda070b9	-0.07834
93	0xbdb41050	-0.08792174
94	0xbd8904e7	-0.06690388
95	0x3c94a885	0.018146763
96	0x3cff6ed1	0.031180771
97	0xbd0bb8c1	-0.034111742
98	0xbcb99336	-0.022653203
99	0x3d3e0400	0.046390533
100	0xbd12f1d0	-0.03587514
101	0x3d9d707d	0.07687471
102	0x3d2b8ba6	0.041881226
103	0x3bf8a8cf	0.007588483
104	0xbd985679	-0.07438368
105	0x3d4940bc	0.049134
106	0x3dc38748	0.09547287
107	0x3d483902	0.048882492
108	0x3df669b0	0.12031877
109	0x3bca40ef	0.0061722915
110	0xbcb6d0e8	-0.022316411
111	0xbdc22bb3	-0.09480991
112	0x3ddeb766	0.10874824
113	0x3d0d93c6	0.034564756
114	0xbd3131c3	-0.043260347
115	0xbde9116e	-0.113802776
116	0x3d830eb1	0.063992865
117	0xbcc7755c	-0.024347953
118	0xbc4566ca	-0.012048433
119	0x3dd25552	0.1027018
120	0xbdbb225c	-0.09137413
121	0xbd90a9ac	-0.07063612
122	0xbe3a3d45	-0.18187435
123	0xbda63b7d	-0.08116815
124	0xbcee3bcf	-0.029081253
125	0xbbc4e389	-0.0060085696
126	0x3d448603	0.047979366
127	0x3d7533d0	0.059863865
128	0xbd0a013a	-0.033692576
129	0x3d9328ca	0.07185514
130	0x3dbad87f	0.091233246
131	0x3dd3aab3	0.10335293
132	0x3e1887e8	0.14895594
133	0x3d48def3	0.049040746
134	0x3d4d389b	0.05010281
135	0xbd52ee16	-0.051496588
136	0xbdf26732	-0.11836089
137	0x3d626ec5	0.05528142
138	0xbdd5ad9c	-0.10433504
139	0x3da5d1a0	0.080966234
140	0xbd3c29de	-0.045938365
141	0xbd1faf4d	-0.03898554
142	0x3d98b551	0.07456458
143	0xbdc7888d	-0.09742842
144	0x3c77a79b	0.015115644
145	0xbdb5c3df	-0.0887525
146	0xbb0d9bd9	-0.0021607785
147	0x3d9412b5	0.072301306
148	0x3da309d1	0.07960857
149	0xbd5ba4e8	-0.053624064
150	0xbdd6f95e	-0.10496782
151	0xb9f98af2	-0.00047596503
152	0xbcb2e7eb	-0.021839103
153	0x3dfb440c	0.12268838
154	0x3b71c8cd	0.0036893368
155	0x3d94a11d	0.072572924
156	0xbc2b6b9a	-0.010462666
157	0x3e14efab	0.14544551
158	0x3dae7773	0.08518877
159	0xbc2f2f26	-0.010692393
160	0x3d8e17ad	0.069381095
161	0xbd475ac5	-0.04867055
162	0xbd001f3b	-0.031279784
163	0x3c7f973c	0.015600022
164	0xbd475a75	-0.04867025
165	0x3e4edd17	0.20201527
166	0xbd893f1a	-0.06701489
167	0xbd5036f4	-0.050833657
168	0x3dd5ef9f	0.10446095
169	0xbcbbd7b1	-0.022929998
170	0xbdcb5563	-0.099283956
171	0x3d934f4d	0.0719286
172	0xbe45ba6a	-0.19309393
173	0x3d32c87b	0.043648224
174	0xbda6f417	-0.08152025
175	0xbe478006	-0.19482431
176	0x3c78cf77	0.015186182
177	0x3cb151da	0.021645475
178	0xbd2abb2b	-0.041682404
179	0xbd7bc88a	-0.061470546
180	0xbe45ddf4	-0.1932295
181	0x3dd02cfe	0.101648316
182	0x3c4c0133	0.012451458
183	0xbd7f125c	-0.06227337
184	0xbd9f3421	-0.07773615
185	0xbdd499f9	-0.103809305
186	0xbe6b052e	-0.22951195
187	0xbd4bb800	-0.049736023
188	0xbcb0f3ba	-0.021600593
189	0x3d4b1741	0.049582724
190	0x3ce69aea	0.02815004
191	0xbd11f9ea	-0.035638727
192	0x3c770238	0.015076213
193	0x3dcd37af	0.100203864
194	0xbd9c3105	-0.07626537
195	0xbee34b5a	-0.44393426
196	0xbd78b3c6	-0.06071832
197	0xbedd86b6	-0.4326684
198	0xbea4dec4	-0.32201207
199	0xbf0d21fb	-0.55129975
200	0x3e87c837	0.2651994
201	0x3dabe4e7	0.08393269
202	0xbb7f35bf	-0.0038941947
203	0xbd76657e	-0.060155384
204	0x3af284bb	0.0018502692
205	0x3b8f53b9	0.004373994
206	0x3d3be1eb	0.04586975
207	0xbd93d767	-0.07218819
208	0xbd870d62	-0.065943494
209	0xbdc9edfb	-0.09859844
210	0x3e3b3fa7	0.18286
211	0xbe1ae701	-0.15127183
212	0x3d7ec1b5	0.062196452
213	0xbe207e34	-0.15673143
214	0x3bf74c9f	0.0075469757
215	0x3d93de44	0.07220128
216	0x3bb0146c	0.005373528
217	0xbde277a1	-0.11057974
218	0xbc57486f	-0.013139828
219	0xbdc2072e	-0.09474026
220	0xbe060255	-0.13086827
221	0xbd81ae33	-0.06332054
222	0xbc1e3293	-0.0096556125
223	0xbe2efa5d	-0.17087694
224	0x3d414414	0.047184065
225	0x3de11261	0.109898336
226	0x3da5a2dd	0.08087704
227	0x3e001298	0.12507093
228	0x3d2215c0	0.039571524
229	0x3c4e8aed	0.012606365
230	0xbc4db22a	-0.012554685
231	0x3e0c967e	0.13729283
232	0x3db1c58f	0.086802594
233	0xbdafd5e1	-0.08585716
234	0xbcfa7985	-0.030575523
235	0xbe2a3749	-0.16622652
236	0x3e153bef	0.14573644
237	0xbdda61a6	-0.10663156
238	0xbdcbcc9c	-0.099511355
239	0x3da02b7e	0.078207955
240	0xbc291e21	-0.010322125
241	0xbdf98dee	-0.12185274
242	0x3daa2b26	0.08309011
243	0x3da89210	0.08230984
244	0x3e06fe77	0.13183008
245	0xbd9aeb5f	-0.07564425
246	0xbdb70ab1	-0.08937586
247	0xbd3d48ee	-0.04621213
248	0xbdee6d98	-0.11641997
249	0xbde8519c	-0.11343691
250	0xbaf32ea9	-0.0018553335
251	0xbca1ee0a	-0.019766826
252	0x3c639af3	0.013891923
253	0x39f1534c	0.00046029163
254	0x3e0ba4a0	0.13637018
255	0xbdf5b8b2	-0.119981185

conv2.bias f4 [32]
0	0x3ec3461a	0.3813942
1	0x3d1c8612	0.038213797
2	0x3e3064d0	0.17225957
3	0x3e17ec5b	0.14836256
4	0x3e4d922d	0.20075293
5	0x3e3f57e3	0.1868587
6	0x3e98ce67	0.29844972
7	0x3c6ae661	0.014337153
8	0x3e70c619	0.23513068
9	0xbe39b48e	-0.18135282
10	0x3c58f459	0.013241851
11	0xbbcb85ad	-0.0062110038
12	0x3ea9a1e1	0.33131316
13	0x3db9738e	0.090552434
14	0xbc7d8d1e	-0.0154755395
15	0x3ec23f06	0.37938708
16	0x3eb9430a	0.3618396
17	0xbde5e3b4	-0.112250715
18	0x3c5f8d37	0.013644508
19	0xbddf1d5f	-0.10894274
20	0xbe9fa832	-0.3118301
21	0x3e454878	0.19265926
22	0x3ca306ea	0.019900758
23	0xbd90a4e4	-0.070627004
24	0xbe54afff	-0.20770262
25	0xbd75a8f3	-0.059975576
26	0xbe05a443	-0.13050942
27	0x3e6528d6	0.22378859
28	0xbd861446	-0.065468356
29	0xbd9b2a01	-0.07576371
30	0x3e80a64a	0.25126868
31	0x3ec8911d	0.39173213

conv3.weight f4 [64, 32, 5]
0	0xbd87bcf0	-0.06627834
1	0xbd1073a5	-0.035266537
2	0xbd6e064b	-0.05811147
3	0xbcc3dc24	-0.023908682
4	0xbc45c024	-0.012069736
5	0x3e5dd29e	0.21662375
6	0x3d8aa2ef	0.06769358
7	0x3dd190d8	0.10232705
8	0x3d82e901	0.06392098
9	0xbd8320f7	-0.06402772
10	0x3d6e9564	0.05824794
11	0xbd94caae	-0.072652206
12	0xbc78102b	-0.0151405735
13	0xbdc82b90	-0.09773934
14	0x3bd68a73	0.006547266
15	0x3c6635e7	0.014050937
16	0x3d0c92a1	0.034319524
17	0xbc5d39ce	-0.013502551
18	0xbc95f4cd	-0.018305207
19	0x3cdd0483	0.02697969
20	0xbdcbdadb	-0.09953853
21	0xbd3ce778	-0.046119183
22	0xbd1b835c	-0.03796707
23	0x3d9001b4	0.07031575
24	0x3c026d62	0.007960649
25	0x3b58aa63	0.0033060543
26	0x3ce49967	0.02790518
27	0xbdb2b3a4	-0.0872567
28	0xbd726303	-0.059176456
29	0xbc822986	-0.01588894
30	0xbd92c7e8	-0.07167035
31	0xbd4447dc	-0.047920093
32	0x3c829b0d	0.015943075
33	0x3cb203f7	0.021730406
34	0xbbd66ab9	-0.006543484
35	0x3da8dafd	0.08244894
36	0x3d8b6a44	0.06807378
37	0xbd3060f4	-0.04306121
38	0x3d425163	0.047440898
39	0xbdd13aa7	-0.10216265
40	0x3dcaebec	0.0990828
41	0x3d73132e	0.059344463
42	0x3cac2147	0.021011962
43	0x3d90eee7	0.07076817
44	0x3d15efc8	0.036605626
45	0xbcbeec6f	-0.0233061
46	0xbda4efd5	-0.08053557
47	0x3c1aa6c3	0.009439173
48	0xbdb7ebad	-0.089804985
49	0xbdabf8cb	-0.08397063
50	0x3d765999	0.06014404
51	0xbcc21a87	-0.02369429
52	0x3d5ddae1	0.054163817
53	0x3ca1e339	0.019761669
54	0x3cf250d1	0.029579552
55	0xbc42a06e	-0.01187907
56	0x3cc2490f	0.023716478
57	0xbcf2d7f9	-0.029644
58	0xbc3421a9	-0.010994353
59	0x3d45494a	0.048165597
60	0x3d452794	0.048133448
61	0x3c6ee68e	0.014581336
62	0x3d9dd906	0.077074096
63	0x3b7776f3	0.0037760108
64	0x3db0b0f4	0.08627501
65	0xbd7151b3	-0.058915805
66	0x3b4212f2	0.0029613343
67	0x3d8d83a1	0.06909872
68	0xbcdd0c1d	-0.026983315
69	0x3b7f4b7a	0.00389549
70	0x3d20e416	0.03928002
71	0x3ced28f0	0.028950185
72	0xbc45fd11	-0.0120842615
73	0x3cc69d55	0.024244944
74	0xbdb14e30	-0.08657491
75	0x3dc019a4	0.093798906
76	0x3dda82e5	0.106694974
77	0xbccd0c86	-0.025030386
78	0xbd4c0113	-0.049805712
79	0xbdb081a7	-0.08618479
80	0x3d4282ab	0.047487896
81	0x3da3e12f	0.08001935
82	0x3cfb0a70	0.030644625
83	0x3dbe66fc	0.092969865
84	0x3c356028	0.011070289
85	0xbc9626db	-0.018329075
86	0x3d81d5a1	0.063395746
87	0xbde4edf1	-0.11178196
88	0xbdd2f17c	-0.10299966
89	0xbd8410c5	-0.06448511
90	0xbd14bf50	-0.036315262
91	0x3aea121b	0.0017858179
92	0x3d7ef2bf	0.06224322
93	0xbd690139	-0.05688593
94	0x3d892836	0.06697123
95	0x3d84c29a	0.0648243
96	0xbd796779	-0.060889695
97	0xbd4a8a50	-0.04944831
98	0xbd06f050	-0.032944024
99	0x3d4ecba9	0.050487194
100	0x3d56a505	0.05240347
101	0xbd4234d8	-0.047413677
102	0x3d4cb58e	0.04997783
103	0xbd434039	-0.04766867
104	0x3af10900	0.0018389523
105	0x3d25e1bf	0.04049849
106	0xbb6db653	-0.0036272004
107	0x3c92970e	0.017894294
108	0xb9fb7cd5	-0.00047967458
109	0x3d52286b	0.051308077
110	0x3e45c417	0.19313084
111	0x3d8043e9	0.06262953
112	0xbca0480e	-0.019565608
113	0x3daa64fc	0.083200425
114	0xbc04cc65	-0.008105372
115	0x3cbb024a	0.02282824
116	0xbcba6b87	-0.022756351
117	0xbd6e02cb	-0.058108132
118	0x3d0f8e31	0.035047714
119	0xbd6270aa	-0.055283226
120	0x3c6b6216	0.014366647
121	0xbd8d0fa3	-0.06887748
122	0x3d8b4f49	0.06802232
123	0xbced4eac	-0.028968178
124	0x3c0f16e6	0.008733487
125	0xbd77480e	-0.06037145
126	0xbcbb8aae	-0.022893276
127	0x3b83253d	0.004002242
128	0xbc760763	-0.01501641
129	0x3d2b4fdb	0.041824203
130	0x3d34ee66	0.044172667
131	0xbdbe43f9	-0.092903085
132	0x3d37e195	0.044892866
133	0x3d2eab51	0.04264385
134	0x3d1f890e	0.038949065
135	0x3cc3897d	0.02386927
136	0x3d4aeb5e	0.04954087
137	0x3d749ca0	0.05971968
138	0x3df537fc	0.11973569
139	0x3e760249	0.24024309
140	0xbd65ef4c	-0.056136414
141	0xbd62bc7d	-0.055355538
142	0xbca6f1bb	-0.020378938
143	0x3d46dfb5	0.048553187
144	0xbd0253b4	-0.031818107
145	0x3e11f2cf	0.1425278
146	0x3dd242e2	0.10266663
147	0x3dfb58a7	0.122727685
148	0x3de64f66	0.11245613
149	0x3d69dc51	0.057094876
150	0x3d26874c	0.040656373
151	0xbdb9184f	-0.090378396
152	0xbd2281f9	-0.039674733
153	0x3b77c54f	0.0037806814
154	0x3cef075b	0.029178312
155	0xbcfc835e	-0.03082436
156	0x3d285ed9	0.04110608
157	0xbce4f332	-0.027947996
158	0xbda1dfe0	-0.07904029
159	0xbdb65eae	-0.089047775
160	0xbcefc194	-0.02926711
161	0xbb8097f1	-0.003924363
162	0x3b9663d4	0.004589537
163	0x3d045a00	0.032312393
164	0x3ce49c96	0.027906697
165	0x3d96cdb1	0.07363451
166	0x3b8e1e4e	0.0043371087
167	0xbd1e0498	-0.0385786
168	0x3c20b536	0.009808829
169	0xbd677c5f	-0.056515094
170	0xbe6cfc58	-0.23143137
171	0xbe754cb8	-0.23955047
172	0xbe1a4deb	-0.15068786
173	0xbdfe732d	-0.12424312
174	0xbe47f834	-0.19528276
175	0xbd45893f	-0.04822659
176	0xbd34e9be	-0.044168226
177	0x3b0b7240	0.0021277815
178	0x3d407cf0	0.04699415
179	0xbc872cec	-0.016500913
180	0x3ca3ba89	0.019986408
181	0x3cebb774	0.028774
182	0xbdb29849	-0.08720452
183	0xbd9ae9df	-0.075641386
184	0x3c47d3e5	0.012196516
185	0xbd89099f	-0.06691288
186	0x3d19f9da	0.037591793
187	0x3c8ff4c9	0.017572777
188	0x3cecec05	0.028921137
189	0xbd9717c6	-0.07377581
190	0xbdac3249	-0.08408029
191	0x3c615e85	0.013755445
192	0xbd9234f5	-0.07139007
193	0x3d29052d	0.0412647
194	0xbd992767	-0.074782185
195	0xbc8113d3	-0.015756523
196	0x3d196255	0.037447292
197	0xbbf79214	-0.0075552557
198	0xbd854546	-0.065073535
199	0xbd22078d	-0.039557982
200	0x3d77d4ce	0.06050568
201	0x3cc51841	0.024059417
202	0xbc082191	-0.008308784
203	0xbca0759d	-0.019587332
204	0x3cb13569	0.021631913
205	0xbd29e106	-0.041474365
206	0xbbac0371	-0.0052494337
207	0xbd1d81f0	-0.038453996
208	0xbc1a9748	-0.009435482
209	0x3cc2b189	0.023766296
210	0xbc804f88	-0.015662923
211	0x3d3f3276	0.046678983
212	0x3c5a9674	0.013341535
213	0xbdc4d9a9	-0.09611828
214	0xbd220499	-0.039555166
215	0xbb42ecdd	-0.0029743232
216	0x3bf73ff8	0.0075454675
217	0xbda19aee	-0.078908786
218	0x3c43a8bb	0.011942084
219	0xbd8b3834	-0.06797829
220	0x3d6ea5a4	0.058263436
221	0x3d3cbbec	0.046077654
222	0xbd5d5ca2	-0.05404342
223	0xbcdaa1ac	-0.02668842
224	0x393c9a54	0.00017986569
225	0xbd8575ed	-0.06516633
226	0xbd8f748f	-0.07004654
227	0xbc5c1587	-0.013432867
228	0x3d096963	0.03354777
229	0x3d8a56e3	0.067548536
230	0x3c8d2787	0.017230762
231	0x3cf38e7b	0.029731026
232	0xbc8e9836	-0.017406564
233	0xbc16550a	-0.009175548
234	0x3cc24872	0.023716185
235	0x3da74f96	0.08169477
236	0xbd19f258	-0.037584633
237	0xbdbc20d5	-0.0918595
238	0x3c372a42	0.011179509
239	0xbd592e9a	-0.05302296
240	0x3c3b6131	0.011436746
241	0x3d845862	0.0646217
242	0xbd9d6880	-0.076859474
243	0xbc3f29a1	-0.01166764
244	0xbd88c54a	-0.06678255
245	0xbd4d117a	-0.050065495
246	0x3c0fab71	0.008768902
247	0xbcd686f0	-0.02618739
248	0xbdad5a0f	-0.08464443
249	0xbd3a7920	-0.04552567
250	0x3cf6e2f3	0.030137515
251	0x3c9b743d	0.018976325
252	0x3bc69375	0.0060600587
253	0xbb09ce7f	-0.0021027622
254	0xbd7ee98a	-0.06223444
255	0x3d4bbf29	0.04974285

conv3.bias f4 [64]
0	0x3dd4e183	0.103945754
1	0x3e876ed9	0.26451758
2	0xbd60ad20	-0.054852605
3	0x3e0cf201	0.13764192
4	0x3e137290	0.14399171
5	0x3ed41d9a	0.41428834
6	0xbea605a0	-0.32426167
7	0x3c9f6c7e	0.019460913
8	0x3e24624c	0.16053122
9	0x3e8a8fc4	0.2706281
10	0xbe03e406	-0.12879953
11	0x3e9c5d33	0.30539855
12	0xbde5b4c4	-0.11216119
13	0xbdb9e47f	-0.09076785
14	0xbcab9806	-0.020946514
15	0x3dd08402	0.101814285
16	0xbcc70299	-0.02429323
17	0x3e48590b	0.19565217
18	0x3e74b997	0.23898922
19	0xbe50c8da	-0.20389119
20	0x3ec8dd58	0.39231372
21	0x3f10e3ed	0.5659779
22	0x3c9bbafc	0.01901006
23	0x3e89eb29	0.26937225
24	0x3d81cbf3	0.06337728
25	0xbc15116e	-0.009098394
26	0x3ee00a1f	0.43757722
27	0x3de10e58	0.10989064
28	0x3efe45eb	0.49662718
29	0xbeb6072a	-0.3555234
30	0x3d0d9bfe	0.034572594
31	0xbd577bab	-0.052608173
32	0x3ef2cc80	0.47421646
33	0x3b8348ae	0.004006467
34	0x3d9b9a01	0.07597733
35	0xbd7667fe	-0.06015777
36	0x3e718e99	0.23589553
37	0xbd6b7443	-0.057483923
38	0x3d983147	0.07431274
39	0x3e9f47b4	0.31109393
40	0x3b564891	0.0032697062
41	0x3d00712e	0.031357937
42	0xbdbdc7bf	-0.09266614
43	0x3c60b4cb	0.013714979
44	0x3e0f450b	0.13991182
45	0x3e8a3c88	0.26999307
46	0x3e9d7965	0.3075668
47	0x3eb39c16	0.35080022
48	0xbe274fcd	-0.16339035
49	0x3e89941f	0.2687082
50	0xbc617f90	-0.013763323
51	0xbec37953	-0.381785
52	0xbd81696c	-0.06318936
53	0x3e482c64	0.19548184
54	0x3f033d45	0.51265365
55	0xbe895241	-0.26820567
56	0xbc0554bf	-0.008137881
57	0x3e7aa58e	0.24477217
58	0x3e02b5fe	0.12764737
59	0x3e327259	0.17426433
60	0x3e280d63	0.16411357
61	0xbe072e42	-0.1320124
62	0xbe774eaa	-0.24151102
63	0xbe5c4111	-0.21509196

fc1.weight f4 [64, 64]
0	0xbd050690	-0.03247696
1	0x3dcf8df7	0.101344995
2	0xbcdddf47	-0.027084006
3	0xbb0555ea	-0.0020345398
4	0x3ddb7908	0.10716444
5	0xbd1085fa	-0.03528402
6	0x3d3a734f	0.045520123
7	0x3d111d6d	0.035428453
8	0xbd5ba1ce	-0.053621106
9	0x3d4cee67	0.050032046
10	0x3d92d167	0.071688466
11	0xbdf08c18	-0.11745471
12	0xbdeccc97	-0.1156246
13	0xbdc2a9c3	-0.09505036
14	0x3de2fee9	0.110837765
15	0x3c1edabf	0.009695708
16	0xbde0525e	-0.1095321
17	0xbdf91393	-0.121619366
18	0x3ddbbe33	0.10729637
19	0xbbaab5af	-0.0052096467
20	0xbe045fb5	-0.12927134
21	0xbdf2d820	-0.11857629
22	0xbd1e293f	-0.038613554
23	0x3d909855	0.07060305
24	0xbdf34d7f	-0.118800156
25	0xbdeb6363	-0.11493566
26	0x3bf4ed16	0.007474552
27	0xbb31dce9	-0.002713973
28	0xbda5ee0f	-0.08102047
29	0x3dd3affe	0.10336302
30	0xbd749bc0	-0.059718847
31	0xbd6112fe	-0.054949753
32	0xbdc6169e	-0.09672283
33	0x3c7d2147	0.0154498285
34	0x3db4cd6e	0.08828245
35	0xbdab6476	-0.08368771
36	0xbc78a871	-0.015176878
37	0xbdb09609	-0.08622367
38	0xbd3c2211	-0.045930926
39	0x3d71df59	0.05905089
40	0xbdec5922	-0.11540438
41	0x3d749918	0.059716314
42	0x3deb8ded	0.115016796
43	0x3cb42dde	0.021994527
44	0xbdbc8889	-0.092057295
45	0xbd1d5921	-0.038415078
46	0xbdc0d5bd	-0.09415767
47	0x3bc98866	0.006150293
48	0x3dcf7231	0.10129202
49	0xbde4f19c	-0.11178896
50	0xbd84ae87	-0.06478601
51	0xbbfe74da	-0.0077653946
52	0xbb4af90f	-0.0030971204
53	0x3d13c428	0.03607574
54	0xbd3f9c50	-0.04677993
55	0xbe03248a	-0.12806907
56	0x3df67730	0.12034452
57	0xbd86182e	-0.06547581
58	0xbda17878	-0.07884306
59	0x3c68e07f	0.01421368
60	0xbca65281	-0.020303013
61	0x3d20a790	0.0392223
62	0xbc8c3f07	-0.017119898
63	0xbd22b375	-0.039721925
64	0xbcb802b0	-0.022462219
65	0xbdacf739	-0.084455915
66	0xbe0b7d8b	-0.1362211
67	0xbe01b620	-0.12667131
68	0x3bec18e9	0.007205118
69	0xbd85881c	-0.065201014
70	0x3cf9d170	0.030495375
71	0x3cf7e683	0.030261284
72	0xbe0b4d1d	-0.13603635
73	0xbd0145af	-0.031560596
74	0x3bbcc140	0.005760342
75	0x3ddbb671	0.10728157
76	0x3cbdea53	0.023183024
77	0xbdb62f3c	-0.08895728
78	0xbd93265d	-0.071850516
79	0x3d8ffab8	0.07030243
80	0x3de2b474	0.11069575
81	0xbe020984	-0.12698942
82	0x3ce2df91	0.027694495
83	0xbdbe7613	-0.092998646
84	0xbdafe73c	-0.08589026
85	0x3d3f4c13	0.04670341
86	0xbd7d6df7	-0.06187245
87	0xbdf655ae	-0.12028061
88	0x3dad13c8	0.084510386
89	0xbb8bc569	-0.0042654765
90	0x3d5b67af	0.053565677
91	0xbdd0bb88	-0.10192019
92	0x3d6c87b3	0.0577466
93	0xbd268044	-0.040649667
94	0xbd452698	-0.04813251
95	0xbe0307fd	-0.12796016
96	0xbe058c94	-0.13041908
97	0x3d8ea816	0.069656536
98	0xbdfaa1f7	-0.122379236
99	0xbdecbc40	-0.11559343
100	0x3c68d15c	0.014210071
101	0x3d7da527	0.06192508
102	0xbd182eb1	-0.037153903
103	0x3d4cbc40	0.049984217
104	0x3d01b1c8	0.031663686
105	0x3c815831	0.015789123
106	0x3d5ba03c	0.05361961
107	0x3d4dd680	0.05025339
108	0xbd8b7522	-0.06809451
109	0x3d8744f0	0.06604946
110	0xbdbf5102	-0.09341623
111	0x3dc63c8b	0.096795164
112	0x3dccb3e7	0.09995251
113	0xbc6f4b03	-0.0146052865
114	0x3da5c7c4	0.08094743
115	0xbc62c460	-0.013840765
116	0x3dc05f9c	0.09393236
117	0x3d8f38c2	0.069932476
118	0x3d9daa9a	0.07698555
119	0x3cc3c818	0.023899123
120	0xbdfd7de6	-0.12377529
121	0xbdd15482	-0.10221197
122	0x3de2206b	0.110413395
123	0xbd93656e	-0.071970806
124	0xbd2b22b8	-0.041781157
125	0xbd65a2bc	-0.0560634
126	0x3dcdf93e	0.10057305
127	0xbd17b168	-0.037034422
128	0xbdc8021d	-0.09766028
129	0x3dddf43e	0.10837601
130	0x3d8711c3	0.06595185
131	0xbdb27664	-0.087139875
132	0x3dc15b35	0.094412245
133	0xbddd4d7b	-0.10805794
134	0xbda485c6	-0.08033328
135	0xbc82fd9b	-0.01599007
136	0x3bfb9373	0.0076774894
137	0x3db6bdab	0.08922895
138	0x3c8f3bd8	0.01748459
139	0xbcad621d	-0.021164948
140	0xbdc89570	-0.09794128
141	0xbcaa69ce	-0.020802405
142	0xba8531b5	-0.0010161909
143	0xbdcba746	-0.09944014
144	0xbd9a80be	-0.07544087
145	0xbd99a5db	-0.075023375
146	0x3cf83826	0.030300211
147	0x3cfcca38	0.030858144
148	0xbddf984c	-0.1091772
149	0xbcef5ca2	-0.029218975
150	0xbd81b847	-0.06333976
151	0xbd412d97	-0.04716262
152	0xbd9e738e	-0.07736884
153	0xbce84237	-0.028351886
154	0x3dc83999	0.09776611
155	0xbdcf1fbe	-0.10113476
156	0xbd8208da	-0.063493446
157	0x3d21f86d	0.039543558
158	0xbdbdf78c	-0.092757314
159	0x3d218741	0.03943563
160	0x3dd50a88	0.10402399
161	0xbda1ae7c	-0.078946084
162	0xbd8c5738	-0.06852573
163	0x3c8a5868	0.016887859
164	0xbdc77668	-0.09739381
165	0x3d1919d3	0.037378144
166	0xbd4ffbe8	-0.050777346
167	0xbd5782a0	-0.052614808
168	0x3d8d3dc2	0.06896545
169	0xbdc625ad	-0.09675155
170	0xbdbdacd8	-0.09261483
171	0xbdcd2e03	-0.10018542
172	0xbca2f801	-0.019893648
173	0xbd84900b	-0.064727865
174	0x3d216ba3	0.03940929
175	0xbcdf6327	-0.02726896
176	0x3de64d97	0.11245268
177	0x3d970218	0.07373446
178	0xbda487a4	-0.08033684
179	0xbe001cb4	-0.1251095
180	0x3da1f28c	0.0790759
181	0xbde65aec	-0.11247811
182	0x3d157494	0.03648813
183	0xbdaddb7b	-0.08489128
184	0x3dcf51d1	0.10123027
185	0x3d30d8e5	0.043175597
186	0xbc94be3a	-0.018157113
187	0x3bd343e0	0.0064473003
188	0xbdeeb8da	-0.116563514
189	0xbdf9924e	-0.121861085
190	0xbdfef253	-0.124485634
191	0xbcf0a1ae	-0.02937397
192	0x3d32b293	0.043627333
193	0x3c3ad7ba	0.011403972
194	0xbd158e4e	-0.036512665
195	0x3dbf18d7	0.0933091
196	0xbdaa16bf	-0.0830512
197	0x3dcb894b	0.09938296
198	0xbca9a5a2	-0.020708863
199	0xbcdb55c8	-0.026774302
200	0x3d818297	0.06323736
201	0x3c87f2bf	0.016595243
202	0xbdd6a452	-0.1048056
203	0xbd57d2fa	-0.052691437
204	0x3d619326	0.055071972
205	0xbe096633	-0.13417892
206	0xbd39e0f8	-0.045380563
207	0xbd534f27	-0.051589157
208	0xbdce8e1e	-0.100857005
209	0x3da84820	0.08216882
210	0xbc488f21	-0.012241156
211	0x3d8ca158	0.068667114
212	0x3d3bc5d2	0.045842953
213	0x3e3411ad	0.17584868
214	0xbc80c6b0	-0.015719742
215	0xbd0ab42f	-0.033863243
216	0x3c18fcbb	0.009337599
217	0xbb233a20	-0.0024906471
218	0xbd092d04	-0.033490196
219	0x3dcba53e	0.09943627
220	0xbb1e693c	-0.0024171611
221	0xbb465b84	-0.003026695
222	0xbc437ddf	-0.0119318655
223	0x3d45d4d2	0.048298664
224	0x3d0f438f	0.03497654
225	0xbd0f2d18	-0.034955114
226	0x3d6508e1	0.05591667
227	0x3bbca50b	0.0057569793
228	0x3cff84d6	0.03119127
229	0x3d9083c5	0.07056383
230	0xbc4e6882	-0.012598159
231	0x3d52044b	0.051273625
232	0x3d396a64	0.045267478
233	0x3e229d67	0.15880357
234	0xbd05c635	-0.032659728
235	0xbe0dec87	-0.1385976
236	0xbbd56a20	-0.006512895
237	0xbabd15ae	-0.0014426017
238	0x3cf41dda	0.02979939
239	0xbdd40c68	-0.10353929
240	0xbda4a724	-0.08039692
241	0x3db4543a	0.088051274
242	0xbd937b95	-0.07201306
243	0x3d8d4fcf	0.06899988
244	0x3cfa5f0a	0.030562896
245	0x3e08dacb	0.13364713
246	0x3e4d5c48	0.20054734
247	0x3d7aaaf9	0.06119821
248	0xbda8fa3b	-0.08250853
249	0xbd3bd9c1	-0.045861963
250	0x3d622029	0.05520645
251	0x3d2ae46c	0.041721746
252	0x3d96952b	0.0735267
253	0x3d231051	0.039810482
254	0xbd8efa4c	-0.06981334
255	0x3d4621b7	0.048371997

fc1.bias f4 [64]
0	0xbdad64d8	-0.084665
1	0xbdb2438a	-0.08704288
2	0x3c1dc2c1	0.0096289525
3	0x3e228a38	0.15873039
4	0x3dc1b6a6	0.094586655
5	0x3e727ebd	0.2368116
6	0xbe9c7e8a	-0.30565292
7	0xbe14a238	-0.14515007
8	0x3e95df5c	0.29271972
9	0x3ed22b9f	0.41048905
10	0x3e4fe62e	0.2030265
11	0xbdf32870	-0.11872947
12	0xbb17c4ec	-0.0023158146
13	0x3ee48545	0.44632927
14	0xbdeb9b84	-0.115042716
15	0x3d52f051	0.051498715
16	0x3e7612a9	0.24030556
17	0xbd115c00	-0.03548813
18	0xbd019c44	-0.031643167
19	0x3e90650d	0.28202096
20	0x3b556c93	0.0032565936
21	0xbdc0215e	-0.09381364
22	0xbd5a9c3a	-0.053371646
23	0x3dc19668	0.09452516
24	0xbd762b6c	-0.060100004
25	0x3da4bd5b	0.08043929
26	0xbe442dd1	-0.19158103
27	0x3e383df1	0.17992379
28	0x3e0ad537	0.13557898
29	0x3ee594ec	0.4484018
30	0x3d932d46	0.071863696
31	0x3e6cfeb1	0.23144032
32	0x3e68f6e0	0.22750425
33	0x3c739477	0.01486694
34	0x3cf5a03e	0.029983636
35	0x3e0fbbe6	0.14036521
36	0xbd0bac0b	-0.03409962
37	0x3e084e24	0.13311058
38	0x3e68f39f	0.22749184
39	0xbea6151b	-0.32437977
40	0x3edc1d2b	0.42991003
41	0xbdae4a09	-0.08510215
42	0x3e1408a4	0.14456421
43	0x3ea69ed1	0.32543042
44	0x3d49be62	0.04925383
45	0xbe5e29af	-0.21695589
46	0x3d117641	0.035513166
47	0xbebafb3b	-0.365198
48	0xbe82a3ca	-0.25515586
49	0xbe07dda0	-0.13268137
50	0x3e09f882	0.13473704
51	0xbe12c625	-0.14333399
52	0x3e434a6d	0.1907136
53	0xbd89d0d4	-0.06729284
54	0x3ecbf885	0.39838043
55	0x3e46b034	0.19403154
56	0x3dbeb36f	0.09311568
57	0x3e72a9b5	0.2369755
58	0x3eb22624	0.34794724
59	0x3e08aaef	0.13346456
60	0xbd9e0df8	-0.07717508
61	0x3db94fdf	0.09048437
62	0x3ec1c38a	0.37844497
63	0x3db19d2b	0.086725555

fc2.weight f4 [1, 64]
0	0x3da98d41	0.08278895
1	0x3ccc2cf5	0.024923781
2	0x3c9920e1	0.018692436
3	0x3d77d9be	0.06051039
4	0x3d558a52	0.052133866
5	0xbe81f753	-0.25384006
6	0xbd817076	-0.06320278
7	0xbdbbd378	-0.09171194
8	0x3db8ed2a	0.090296105
9	0x3d69480a	0.056953467
10	0x3d9f6caf	0.077844016
11	0xbdf19181	-0.11795331
12	0xbde34c3b	-0.11098524
13	0x3d4de5a0	0.050267816
14	0x3dcc5bb7	0.09978431
15	0xbdead112	-0.11465658
16	0x3de40853	0.111344
17	0xbd82d8dc	-0.06389019
18	0x3d26110f	0.040543612
19	0x3dc4306e	0.0957955
20	0xbca50cf6	-0.020147782
21	0xbd8a246b	-0.067452274
22	0xbd1c6bf3	-0.038188886
23	0x3d7c9f36	0.061675273
24	0x3d2e42e4	0.04254426
25	0x3da67eb5	0.08129636
26	0xbde250f9	-0.110506006
27	0x3de6f73e	0.112776265
28	0xbe310a5e	-0.17289111
29	0x3d58e217	0.05294999
30	0xbdfa0e9e	-0.12209819
31	0x3dc65a6a	0.09685214
32	0x3dd9e6d8	0.10639733
33	0xbe4192b5	-0.1890362
34	0xbc6989f0	-0.014254078
35	0xbe1b4f3b	-0.15166943
36	0x3ba26080	0.0049553514
37	0xbe91fab5	-0.28511587
38	0x3dbb6c71	0.09151543
39	0xbd0e4e88	-0.034742862
40	0x3d89bc64	0.06725386
41	0x3c6e37d3	0.014539677
42	0x3d638b0c	0.055552527
43	0x3dfe60f2	0.124208346
44	0x3bd1a84f	0.006398238
45	0xbe1858d0	-0.1487763
46	0xbdec4012	-0.11535658
47	0xbe12d9f4	-0.14340955
48	0xbe11026c	-0.1416108
49	0xbd7a3abe	-0.061091177
50	0x3d13f00a	0.03611759
51	0xbd580e2b	-0.052747887
52	0x3d433ee5	0.047667403
53	0x3ddb5c3f	0.10710954
54	0x3d716517	0.058934297
55	0x3d8526c1	0.06501532
56	0xbe2f4277	-0.17115198
57	0x3db78823	0.08961513
58	0x3d12721e	0.035753362
59	0x3db1548a	0.08658703
60	0xbdc426bb	-0.095777
61	0xbdd60968	-0.10451013
62	0x3e09763c	0.13424009
63	0x3d88d6d7	0.066816024
